net/krk_model.pth (torch, 470488 bytes, 7 tensors)

ft.weight f4 [512, 193]
000000 a0 7b 05 3d c5 d5 41 bd 33 81 81 3d a4 8b 2a bc
       0.0325886 -0.047323007 0.06323471 -0.0104092695
000010 ec 15 4c bd f9 19 b7 bd bd f1 9c bc 31 9d 6e bd
       -0.049825594 -0.08940501 -0.019158239 -0.05825538
000020 38 64 8d bc 19 6f 3f bd 48 b1 c2 bc d6 05 80 bd
       -0.017259702 -0.04673681 -0.023766175 -0.06251113
000030 31 fc b1 3d 12 1c ed 3c 10 05 bb bc c7 0a 8a bd
       0.0869068 0.028944049 -0.022829562 -0.06740337
000040 29 76 6c bd 33 0f 90 bc 43 0d 9b 3c 05 29 94 bd
       -0.057729874 -0.017585373 0.018927222 -0.07234386
000050 18 39 e7 3d 52 35 9c bd c5 46 8e bd d4 70 5b 3d
       0.11290187 -0.076273575 -0.06947092 0.0535744
000060 e2 89 80 bc 84 38 fc 3d f9 ac 01 3e 34 c6 ce 3d
       -0.015690748 0.12315467 0.1266364 0.10096398
000070 85 54 e5 3d 01 3d 43 3e fd 4f 16 bd d9 00 4a bd
       0.111977614 0.1906624 -0.036697377 -0.049317215
000080 0c f5 49 bd ca 8d 44 bd 2c 66 f5 3c 1a c3 9b 3d
       -0.04930596 -0.047986783 0.029955946 0.07605572
000090 9d 1b 8b 3e 03 ac 5c 3e f4 9e 89 3d 54 55 44 bd
       0.27169505 0.21549992 0.06719771 -0.047932938
0000a0 81 32 c3 bd be 45 41 bd 9d 3a b3 bd 2d 9b 90 3d
       -0.09531117 -0.047185652 -0.08751414 0.070608474
0000b0 a8 39 45 3d 09 c1 51 3e fd 20 6d 3d 28 8d 80 bd
       0.04815069 0.20483793 0.05789279 -0.062769234
0000c0 ba 9d fa bc 63 ad 42 bd 50 bf 72 3c 8b ce 43 3d
       -0.030592788 -0.047528636 0.01481612 0.047804397
0000d0 95 11 59 bd 37 1d 8f 3d 2e 66 d3 3d b8 a2 34 3d
       -0.052995283 0.06987994 0.103222236 0.044100493
0000e0 90 25 8b bd df 71 6f 3d 41 04 b7 bd 4c 08 d9 bb
       -0.06794274 0.058458205 -0.08936358 -0.0066233035
0000f0 9c 17 04 bc e9 12 3f bd 7b 55 5f bd 7b 33 9e 3c
       -0.00806227 -0.046648894 -0.05452488 0.019311657
000100 02 8b 95 bd 1b 87 8f bd 0f 70 9e bd 1b d8 90 3d
       -0.07301904 -0.07008191 -0.07736217 0.07072469
000110 e6 1e 67 bc 00 28 b1 bc 22 0f 79 3c 93 2d 07 3d
       -0.014106488 -0.021625519 0.015201362 0.033002447
000120 fc a1 25 3d 90 af 80 3d 99 f2 48 bd cc 86 65 bc
       0.040437683 0.06283486 -0.049059484 -0.014009189
000130 c9 49 18 3d 9b 46 bd 3d 90 16 00 3e cc 30 54 bd
       0.037179742 0.092419825 0.12508607 -0.05180435
000140 d5 3d 53 3c a7 1d 54 3c 5d bc ab bd 0a a3 2b 3c
       0.01289316 0.012946523 -0.08385537 0.010475883
000150 df ea 5c 3c 53 03 78 3b ef 4e 4b bc b7 8b 17 3e
       0.013483732 0.0037843778 -0.012408956 0.1479939
000160 2c 9e 52 bd 73 76 79 3d 5c 68 9e 3d 8a 86 aa bd
       -0.051420376 0.060903978 0.07734749 -0.083264425
000170 cd 8b e1 bd ef ef d0 3d ff 22 2a 3c 71 55 51 3e
       -0.11012993 0.10202014 0.01038432 0.2044275
000180 bc a6 a9 bd a5 2b a0 bc e7 b8 3c 3c 60 e3 28 3e
       -0.08283755 -0.019552061 0.0115186935 0.16492987
000190 58 a5 8d bd eb f0 7a 3d e7 4a a7 bd bb 12 60 3d
       -0.069163024 0.061264914 -0.08168583 0.054705363
0001a0 95 18 c0 bd 6c 55 39 bd 89 24 83 3d 5d 98 23 bc
       -0.09379689 -0.04524748 0.06403453 -0.009985057
0001b0 2a 15 2a bd 77 57 1e bd a4 f5 be bd 4f ca d7 3d
       -0.04152409 -0.03865763 -0.09324196 0.10536634
0001c0 8b 60 96 bd 47 28 dd bb 13 ff b5 bc 18 db 08 3e
       -0.07342633 -0.006749186 -0.022216355 0.13364828
0001d0 44 1a d0 3c 86 0a 7b 3d 3e 6e f6 bb de 0c 04 3d
       0.02540315 0.061289333 -0.007520466 0.032238834
0001e0 9e ff 3c bd d4 38 0e 3d aa da 32 bd 16 e8 ed 3d
       -0.046142213 0.034722164 -0.043665566 0.116165325
0001f0 f9 72 29 bd c6 30 10 bc d6 ce 73 3d 88 bf d0 3d
       -0.041369412 -0.008800691 0.059523426 0.10192782
000200 d4 78 53 bd d8 0f 16 3c 9d f8 9e 3d f8 fa 66 3c
       -0.051628903 0.009159051 0.07762263 0.014097922
000210 ae f1 53 bb fa 5a d6 3d 10 1d 06 3e 66 a8 aa 3d
       -0.0032340097 0.10466571 0.13097024 0.08332901
000220 9e 2c e0 bc 1d fd 1b bd e9 d2 b9 bd 8c 1b 42 3c
       -0.027365025 -0.038083185 -0.09073431 0.011847388
000230 e7 f8 70 3b a1 41 9e 3d 6e 68 41 3c 27 55 21 bc
       0.003676945 0.077273615 0.011804683 -0.009846962
000240 9b da 83 3d f7 8a ed bd 7a 01 b1 bd 09 66 8c bd
       0.0643818 -0.11598771 -0.0864286 -0.06855399
000250 8a cc e9 3c b4 ac 99 bd bc 98 ee 3d 43 93 48 3d
       0.028539915 -0.07503644 0.116502255 0.048968565
000260 4d 46 59 bd ad 3b 91 3c b4 98 98 3c 85 b6 83 3d
       -0.05304556 0.017728651 0.018627502 0.06431297
000270 33 83 9e 3d 81 a2 3c 3c a3 d1 08 3e 9f a4 ad bc
       0.07739868 0.011513353 0.1336122 -0.021196662
000280 66 4a 16 3d e2 34 43 bd d1 50 8a 3c 2a 75 6b 3d
       0.036692046 -0.047657855 0.01688424 0.057484783
000290 61 a0 a6 3c 51 b5 0f bd 89 da ca 3c a7 45 78 bd
       0.020340146 -0.035085026 0.024762409 -0.0606133
0002a0 9e 07 94 3a a9 a0 8a bd bd ed 6c 3c 82 bc 05 bd
       0.0011293774 -0.06768925 0.014460978 -0.03265048
0002b0 56 6e aa 3c e9 b3 c9 bd 46 2c 80 3d 91 d9 ec 3d
       0.020804565 -0.09848768 0.062584445 0.11564935
0002c0 4e 27 86 bd da 09 6e bd 3c 07 9d 3d 68 1b 11 3c
       -0.065504655 -0.058114864 0.076673955 0.008856632
0002d0 17 e5 ab bd 98 8e 4c bd 88 ed ed 3d 80 3b 04 3d
       -0.08393305 -0.049940675 0.11617571 0.032283306
0002e0 a1 52 98 3d ba 21 17 3d ae ce 80 3d 0f f0 46 3b
       0.07437635 0.0368974 0.06289421 0.0030355488
0002f0 16 94 aa 3d fe e5 80 bd cf b5 81 bd 6e 2b d7 b9
       0.083290264 -0.062938675 -0.06333505 -0.00041040353
000300 8a 23 4a 00 45 f0 0d 80 e4 a6 f5 29 b9 64 88 a9
       6.808576e-39 -1.280054e-39 1.09091365e-13 -6.057086e-14
000310 75 d1 6e a8 c7 a4 2e a6 5a 3d 2c 00 17 6a 82 1d
       -1.3257073e-14 -6.059169e-16 4.06277e-39 3.4520408e-21
000320 33 f5 1b 80 74 a8 11 80 6a 88 13 80 5f 5a 01 00
       -2.56752e-39 -1.621633e-39 -1.79381e-39 1.24255e-40
000330 e2 33 09 38 12 5b c8 91 38 98 60 29 95 cf 97 ac
       3.2711665e-05 -3.1610563e-28 4.987002e-14 -4.3147244e-12
000340 52 86 1d 00 72 d6 e1 3b 62 ca 9e 99 bb 10 de 35
       2.711414e-39 0.006892019 -1.6418559e-23 1.6545158e-06
000350 5b 43 cc 33 80 e6 08 2c 11 55 14 00 5a d2 97 ae
       9.511742e-08 1.9454716e-12 1.867226e-39 -6.904051e-11
000360 64 69 1a 80 4c 16 18 80 7b e1 a1 05 11 8c 4b 2a
       -2.42553e-39 -2.21205e-39 1.5223196e-35 1.8078617e-13
000370 f2 3d 78 34 29 56 03 00 00 e8 0b 80 6d 37 29 00
       2.3119335e-07 3.06415e-40 -1.093416e-39 3.785138e-39
000380 98 fe 3c 00 95 f7 ed a9 80 a9 14 00 76 b6 29 00
       5.601461e-39 -1.0567863e-13 1.897515e-39 3.83071e-39
000390 92 b1 7e 22 1e 1e ca 2b dc 87 21 80 e7 45 a7 04
       3.4517424e-18 1.4361322e-12 -3.079309e-39 3.9325706e-36
0003a0 cc 9d 1e a7 35 05 2a 32 22 92 2a ac eb 9b 07 00
       -2.2012447e-15 9.896486e-09 -2.4239573e-12 6.98781e-40
0003b0 f5 c9 ca a2 2a 7a 9b aa a8 f7 3e 80 82 ee 2b 00
       -5.496604e-18 -2.76183e-13 -5.782643e-39 4.034487e-39
0003c0 6d b7 10 80 b2 45 15 80 4f 10 36 00 bb a8 2b 37
       -1.535169e-39 -1.953547e-39 4.964967e-39 1.023168e-05
0003d0 a6 58 03 00 7c f3 f9 98 e2 2a 0f 80 59 2e db 15
       3.07308e-40 -6.4610848e-24 -1.392916e-39 8.852652e-26
0003e0 e0 3f 17 36 5d a6 36 b4 a7 43 a3 37 e0 e0 11 80
       2.2537934e-06 -1.7010593e-07 1.9462617e-05 -1.641873e-39
0003f0 a4 3f 2d 00 4f 8d 1d 80 6b 24 90 26 c8 fa 18 80
       4.155427e-39 -2.713921e-39 1.0001878e-15 -2.294015e-39

ft.bias f4 [512]
000000 e6 c1 fd bd 96 49 a4 bc 7a 20 02 be 33 9c c3 bd
       -0.12390499 -0.02005462 -0.12707701 -0.09551277
000010 ee 9d a8 bd f8 62 d1 bd 00 40 62 b0 4c 5c 37 be
       -0.08233248 -0.10223955 -8.230927e-10 -0.17906302
000020 58 45 2e be b8 cf 41 be 26 bf 0d be 0b 4d dd a7
       -0.1701864 -0.18926895 -0.13842449 -6.1423352e-15
000030 2f 0c 2b be 3a ab 49 be 76 f2 49 be 80 59 ed b7
       -0.16703866 -0.19694224 -0.19721398 -2.8294278e-05
000040 39 ea 1b be 7b 09 3b be 2c ef 31 be ed dd 17 be
       -0.15226068 -0.18265335 -0.17376393 -0.14830752
000050 6c 7f b3 ac 6d 3b ec bd 26 2e 63 be 53 3b 00 be
       -5.1016327e-12 -0.11534772 -0.22185573 -0.1252263
000060 10 a7 f2 bd a3 2c 3f be 2b 18 48 be 92 4d 39 be
       -0.11848271 -0.18669371 -0.1954047 -0.18095997
000070 17 d5 38 be 6c df 50 be 55 c8 ae bd e6 42 37 be
       -0.18050037 -0.20397729 -0.08534304 -0.17896613
000080 2e 8b 39 be 8b db 82 bd dc 48 14 be 20 2d 5b be
       -0.18119499 -0.06389531 -0.14480919 -0.21403933
000090 c7 4e 40 be 36 c6 71 bc 17 fa 69 b7 e1 4a 0c be
       -0.18780051 -0.01475673 -1.3946111e-05 -0.13700439
0000a0 3e 33 fd bd c7 66 a6 bd dc ce 26 be db f9 c2 bd
       -0.12363289 -0.08125072 -0.16289848 -0.095203124
0000b0 b3 c9 da a3 6f 51 0e be cb bc 39 be 5e 00 df bd
       -2.372103e-17 -0.13898252 -0.18138425 -0.10888742
0000c0 41 a9 83 be 8e 63 34 be 1d 83 8c b9 30 9b 56 b8
       -0.25715068 -0.17616102 -0.00026800568 -5.1166106e-05
0000d0 7b 10 24 be 51 20 47 bd 9a 27 23 be 85 f9 30 be
       -0.16021912 -0.048614804 -0.15933076 -0.17282684
0000e0 8a 62 3b b8 04 a3 a6 bc 04 45 6e bd 81 bc 23 be
       -4.4676046e-05 -0.020341404 -0.058171287 -0.15989877
0000f0 db b3 0c be 8d 74 1f be 59 f8 27 be 3e 8d 13 be
       -0.13740484 -0.15571804 -0.16403331 -0.14409348
000100 c5 b5 1c be 1e ab 83 a8 d5 be 62 be 47 7b d7 bc
       -0.15303715 -1.4618132e-14 -0.22143109 -0.0263039
000110 1c 58 3b be 78 df 34 be ea 18 66 be d4 f2 5b be
       -0.1829533 -0.17663372 -0.22470441 -0.2147935
000120 34 de 8b ae 6c e9 25 bd ff 2f 97 bd c6 e2 e5 bd
       -6.3604594e-11 -0.04050581 -0.073822014 -0.11224894
000130 97 0c 36 bc c5 b9 23 be ee ca 66 be fd 9a 44 be
       -0.0111114 -0.15988834 -0.22538349 -0.19199748
000140 af b0 0b be a5 19 46 be 5e b5 8b bd 97 6f f9 bd
       -0.13641618 -0.1934572 -0.068217024 -0.12179487
000150 60 d4 06 be 45 26 62 be f1 63 1f be 9a 89 b2 bd
       -0.13166952 -0.22084911 -0.15565468 -0.08717652
000160 72 77 10 be 24 f3 00 be d1 0e 30 be b9 f1 48 a7
       -0.14108065 -0.12592751 -0.17193152 -2.7886614e-15
000170 3d b6 e4 bd 93 f2 f4 bd 77 2b ac 9f 82 e7 20 be
       -0.11167572 -0.1196033 -7.291674e-20 -0.15713313
000180 f7 80 64 be a6 72 5f bc e0 8f f1 b2 fa 45 05 be
       -0.22314821 -0.013638174 -2.812152e-08 -0.13014975
000190 93 01 33 be d6 17 fd bc c9 e3 31 be 58 60 dc bd
       -0.1748107 -0.030895155 -0.1737205 -0.107605636
0001a0 53 68 1a be b9 ab ec bc a8 68 04 be 80 30 2b be
       -0.15078859 -0.028890477 -0.12930548 -0.1671772
0001b0 02 fd 2c be 8d cd 1e be 88 f1 ca bd 12 ba 2d be
       -0.1689339 -0.15508099 -0.0990935 -0.16965511
0001c0 09 1d 1a be 11 3b a9 bc f9 ef 25 be 4f 82 c9 bd
       -0.15050139 -0.020658048 -0.16204824 -0.098393075
0001d0 0f 69 bd bd d9 00 34 be 2c 52 16 be 36 fc 44 be
       -0.09248554 -0.17578448 -0.14679784 -0.19236836
0001e0 b7 0b c0 bd 40 9e fa b6 7e 86 d4 bd d7 04 4e be
       -0.093772344 -7.4690033e-06 -0.10377215 -0.20119034
0001f0 96 75 2b bd 34 5e 44 be 4d d4 4b bd 28 bc 75 be
       -0.041860186 -0.1917656 -0.049763013 -0.23997557
000200 e6 1f 6e ba 35 6d 46 be cf c4 31 be ca 47 2d be
       -0.0009083733 -0.19377597 -0.17360233 -0.16921917
000210 3f 28 8f bd 5b 53 79 bd 76 c3 21 be 89 4a 36 be
       -0.06990098 -0.06087051 -0.15797219 -0.1780187
000220 e6 3b 66 a9 27 a8 6f bd b9 03 37 be 27 16 10 be
       -5.1122213e-14 -0.058509972 -0.17872514 -0.1407095
000230 17 d1 f1 bd f5 69 15 be 56 0d 80 bc 29 b1 61 be
       -0.11807459 -0.145912 -0.01563136 -0.22040237
000240 1c d3 1a be dc 89 05 bc f9 01 50 be 72 e2 29 be
       -0.15119594 -0.008150544 -0.20313253 -0.16590288
000250 a0 dc 22 be 16 b5 21 be 68 85 34 be 61 05 32 be
       -0.15904474 -0.15791735 -0.17629015 -0.17384864
000260 c0 01 bf bd 8b 91 f3 bc 1e eb b5 bd 06 3a 22 be
       -0.09326506 -0.029732486 -0.08882736 -0.15842447
000270 1a b3 4d bd a0 8f 18 be f5 a5 55 b9 72 e7 2f be
       -0.050219633 -0.14898539 -0.00020375087 -0.17178133
000280 e5 ba 1d be 8d b1 81 b2 32 98 20 be d5 80 8c bd
       -0.15403326 -1.5098317e-08 -0.15683058 -0.0686051
000290 c0 bf 32 be 23 60 45 be 49 60 76 be 69 20 f7 bd
       -0.1745596 -0.19274954 -0.24060167 -0.120667286
0002a0 6b 85 02 be fc 19 24 be 43 d2 cc bd 92 23 b0 bd
       -0.12746207 -0.16025537 -0.10001042 -0.086005345
0002b0 04 2c 5e bd be a7 19 be c8 75 2a be 32 23 97 9e
       -0.054241195 -0.15005395 -0.16646492 -1.6002303e-20
0002c0 26 d3 24 be 6b 0a 5e be 30 21 16 be 4d 06 5f bc
       -0.16096172 -0.21683662 -0.14661098 -0.013612342
0002d0 a3 a3 17 be 03 f5 0b be cb 06 dd bd ec 74 a1 bd
       -0.14808516 -0.13667683 -0.10792311 -0.07883629
0002e0 eb f9 63 be d1 2f 63 be f7 58 18 be 7b b7 12 be
       -0.22263305 -0.2218621 -0.14877687 -0.14327805
0002f0 58 90 50 bd 5a 9b 93 bd 0b 88 48 be 86 ed 15 be
       -0.050918907 -0.07207365 -0.19583146 -0.14641389
000300 5d ce 0f be 11 30 33 be a2 d8 3e be 17 ec 30 be
       -0.14043565 -0.17498805 -0.18637326 -0.17277561
000310 67 94 24 bd f4 78 dd bd 6a d8 31 a4 60 af 50 be
       -0.04018059 -0.108140856 -3.8564067e-17 -0.203794
000320 03 e2 25 be 14 ea 87 bd ec 9b 2c be ed 61 4c be
       -0.16199498 -0.06636444 -0.16856354 -0.1995923
000330 61 ba 1f be d9 7a 5b be 07 06 1a be 55 b1 21 be
       -0.15598442 -0.21433581 -0.15041362 -0.15790303
000340 86 1b 79 ae d6 54 12 be 6a 09 0c be c4 3f b3 bd
       -5.664049e-11 -0.14290175 -0.13675466 -0.08752397
000350 3b 7a ca bd a8 5e 41 be 93 9e 83 be 30 dc ea a6
       -0.09886595 -0.18883765 -0.2570692 -1.6296694e-15
000360 da 08 16 be 23 95 eb bd 64 f9 0f be b2 84 f5 bd
       -0.14651814 -0.11503055 -0.14059979 -0.119882
000370 9d 8b d6 bd 99 49 5e bd 28 fc 2a be ff 83 26 be
       -0.10475848 -0.054269407 -0.16697752 -0.1626129
000380 a3 d2 4c be f3 46 2d be ee e1 d0 bd e3 84 f8 b3
       -0.20002227 -0.16921596 -0.10199343 -1.1572572e-07
000390 ad be 15 be 79 35 5a a7 35 00 17 be 78 f7 19 be
       -0.14623518 -3.0282565e-15 -0.14746173 -0.15035808
0003a0 09 fe 78 bc 50 9b a3 bd 2f 03 ba bd b5 70 23 be
       -0.015197285 -0.07988608 -0.090826385 -0.15960963
0003b0 17 22 24 be c7 7f 33 be bb 02 53 be 61 27 44 be
       -0.16028629 -0.17529212 -0.2060651 -0.19155647
0003c0 88 b3 e9 bd ee cf 22 be 27 52 ce bd 20 0a 43 b9
       -0.11411196 -0.15899631 -0.10074263 -0.00018600421
0003d0 95 b3 0c b6 25 35 4b be 63 31 29 be db 8b d5 bd
       -2.0966156e-06 -0.19844492 -0.16522746 -0.10427066
0003e0 cc 62 30 bd 30 62 3f be 5c 27 fb bd 23 10 2e be
       -0.04306297 -0.186898 -0.122633666 -0.16998343
0003f0 92 8d e8 bd 29 2f d2 b8 ee 52 5d bd 99 e2 c6 bc
       -0.113551274 -0.000100223646 -0.054034166 -0.024277972

l1.weight f4 [32, 512]
000000 2d 39 5b 3e f1 36 9f b7 8a 8d f0 3d be 1d 3a ba
       0.2140853 -1.8979861e-05 0.117457464 -0.0007099769
000010 82 dd 85 3b 51 52 4b 3e 45 ab 49 80 42 05 42 3e
       0.0040852437 0.1985562 -6.765431e-39 0.18947318
000020 a7 8f 2d 3d 8b fc e1 bd 1c b7 13 3d 3b 4a 27 80
       0.042373326 -0.11034497 0.0360633 -3.608213e-39
000030 51 f5 fe 3d cb 45 c5 3d 8d 04 88 3d 0c 4d de b0
       0.12449134 0.096324526 0.06641493 -1.6174524e-09
000040 6c 41 f7 3d d5 f0 76 3c 58 a9 a7 3d bb 03 fb 3d
       0.12073025 0.015072067 0.08186597 0.12256571
000050 16 07 a6 14 0e 14 c3 bd 5a 32 02 3e 89 33 a6 3c
       1.6764511e-26 -0.095253095 0.1271452 0.020288246
000060 10 ec 83 3d 8e 6e a0 3e da c7 07 3e 36 6c ba 3d
       0.0644151 0.31334347 0.13259831 0.09102671
000070 65 fc 24 3e 06 3d bb 3d 26 ca 16 3c b9 b2 9f bd
       0.16111906 0.09142499 0.009203469 -0.077977605
000080 fe fd e2 3d 70 a0 c7 bb 72 20 d3 bb 82 64 33 3e
       0.110836014 -0.0060921237 -0.0064430768 0.1751881
000090 f3 f2 57 bb e9 aa 2b 38 94 61 cc 14 45 43 e5 3b
       -0.0032951206 4.092875e-05 2.0637224e-26 0.0069965445
0000a0 e4 dd 29 3e 4f 5f b6 bc b9 46 dc 3d 1c af 19 3e
       0.16588551 -0.022262244 0.10755677 0.15008205
0000b0 df 7c 2e 80 c1 90 b5 bd 4b 2f ee bc 40 b5 44 3c
       -4.269228e-39 -0.088655 -0.029075285 0.012006104
0000c0 36 78 8e 3e 97 57 fb 3d a1 00 b5 2d d8 ff 81 a6
       0.2782609 0.12272566 2.0577597e-11 -9.02052e-16
0000d0 27 ed ee 3c 51 52 ca 3a dc d9 b3 3d df 89 b0 bd
       0.029165817 0.0015435909 0.08781788 -0.08620047
0000e0 29 ed 79 24 5f d6 14 b7 7d ca 73 3b 57 5f e5 3c
       5.419415e-17 -8.8714e-06 0.003719955 0.027999563
0000f0 10 7b ae 3d 02 25 77 3c 2e db ef 3d 9f 03 67 3d
       0.08519566 0.015084507 0.11711727 0.056399938
000100 68 df 12 3c 26 f6 2a 00 6d 74 b9 bc c1 52 ac 38
       0.008964397 3.945392e-39 -0.022638524 8.217013e-05
000110 86 2d 5e bc c4 4b 2d 3e 7c e5 99 3e d5 c0 03 3e
       -0.013560658 0.16923434 0.30057895 0.12866528
000120 3e 52 37 80 7b 83 7b ba e7 41 cc 3b 97 f5 0f 3d
       -5.080455e-39 -0.0009594482 0.006233442 0.035146322
000130 9c d8 bc 38 1e 54 91 3d ff c6 c5 3d bc d0 35 bc
       9.004885e-05 0.07096122 0.09657096 -0.011097129
000140 83 9b 64 3d 77 9c 9f 3d d2 61 c3 bc 41 9d 82 3c
       0.05581237 0.07793515 -0.023850355 0.015944125
000150 64 bc eb bd 40 93 6a 3e 46 9b e5 3d f0 bc 1e 3c
       -0.11510542 0.22907734 0.11211257 0.009688601
000160 b5 b2 61 3d 0a 52 aa 3c 57 50 65 3d ed 11 31 8e
       0.05510207 0.020791072 0.05598482 -2.1825565e-30
000170 4f 3d 90 bd 91 9b 40 3e 7b 08 13 00 68 80 12 3c
       -0.07042944 0.18809344 1.747917e-39 0.008941747
000180 be c8 50 bd 3b cf 82 b8 03 bb 58 8f ad a5 c6 bc
       -0.050972693 -6.237483e-05 -1.0685639e-29 -0.024248922
000190 af c7 c8 3c a2 22 e4 3a 5c 0a 8e 3d 33 c8 47 bc
       0.024509279 0.0017405341 0.0693557 -0.012193727
0001a0 8e c4 ef 3d 31 d3 34 37 e7 2e 2e 3e 35 0e 9e 3d
       0.11707412 1.0778008e-05 0.1701008 0.077175535
0001b0 c9 61 85 3d 95 ca de 3d 79 39 94 3c 56 bd 26 bd
       0.06512792 0.10878483 0.018093811 -0.04070791
0001c0 2f a7 89 3d 5a 1e 7a b8 57 a6 46 bc 82 4c 06 3d
       0.06721341 -5.9632912e-05 -0.012124619 0.032787807
0001d0 b4 f6 c1 3b 72 83 a3 3c e3 48 43 bc 7e 94 04 be
       0.005919302 0.019960139 -0.011919233 -0.1294727
0001e0 d7 31 3d bd a4 a4 2e 9b 37 8a 0a bc 82 5e 15 3e
       -0.04619011 -1.4446141e-22 -0.008455805 0.14586833
0001f0 62 fb 7f 39 62 f3 2a 3d 7a 9a 04 3e 1f 41 19 be
       0.00024412342 0.041736014 0.12949553 -0.14966248
000200 7a 78 52 37 fd 88 d0 3d 23 e0 34 3e 0e 5a 92 3d
       1.2545026e-05 0.101823784 0.17663626 0.07146083
000210 80 50 d8 3a 0b 64 27 b9 ec 96 fc 3d 5f e4 41 3e
       0.0016503483 -0.0001596363 0.123334736 0.18934773
000220 e7 d1 22 80 2f 4e 62 ba 6c 3c 62 3e 18 52 ca 3c
       -3.197706e-39 -0.0008632866 0.22093362 0.024697348
000230 49 2c 06 3c 09 61 4c 3e df 39 67 b7 b7 d7 7f 3e
       0.008189269 0.19958891 -1.3782147e-05 0.24984632
000240 c4 1d c6 bd 77 18 8d 36 28 73 66 3d e8 27 46 3d
       -0.09673646 4.2049755e-06 0.056262165 0.0483779
000250 7a 86 ed 3c b1 4d 10 3e ed 62 ee 3c 99 36 9d 3d
       0.028994787 0.14092137 0.029099906 0.07676429
000260 28 10 49 3c 96 fc a4 b9 b4 26 7f bb 53 50 0a bd
       0.012271918 -0.0003146871 -0.003893298 -0.03376801
000270 cc 2f ed ba f1 2d 24 3e 66 55 18 aa 2c 7e a9 3d
       -0.001809591 0.1603315 -1.352994e-13 0.082760185
000280 e7 88 1a 3e 4c 12 9c 1f 7f e2 26 3e b3 51 01 3b
       0.15091287 6.609884e-20 0.16297339 0.0019732534
000290 25 0a 09 3d da 3d 48 3e 0d a6 ce 3d 9e 10 36 3c
       0.03345694 0.19554844 0.100902654 0.01111236
0002a0 d4 89 0d 3e 16 0a 02 3d b7 46 86 bc a2 d8 00 3b
       0.13822109 0.0317479 -0.016391141 0.0019660373
0002b0 04 97 07 bb f1 3a 4f 3e b0 dd 30 3d c8 0b 3d 80
       -0.0020689378 0.20237328 0.043180168 -5.606192e-39
0002c0 75 d5 d9 bc 58 37 9f 3d 91 2f 24 3e ee 39 cf 35
       -0.026591042 0.07774228 0.1603377 1.5439562e-06
0002d0 35 92 33 3e bd 2a 58 bd aa f5 37 bb e3 b9 c3 3c
       0.17536242 -0.052775133 -0.0028070011 0.023892349
0002e0 6d 3e e1 3d 2a de b0 3d aa 20 75 3a 63 e5 af 3d
       0.10998235 0.086361244 0.00093508756 0.08588674
0002f0 38 47 18 3a 72 47 a4 3b 6d 05 e6 bc eb c2 b8 bc
       0.0005808952 0.0050133998 -0.02807876 -0.022553882
000300 79 4c 8e 3d 41 16 87 bd 8f 4d 35 3e 86 3a 37 3e
       0.0694818 -0.065960415 0.17705368 0.17893419
000310 23 fd c3 3a e6 85 6f 3c 03 da 1f 80 0b 04 3e 3e
       0.001495276 0.014619326 -2.925108e-39 0.1855623
000320 79 de 59 3d 92 1d c8 bb f7 44 3d 3e 3b aa 2d 3d
       0.053190682 -0.0061070407 0.18483339 0.042398673
000330 ad f2 ad bc d0 c7 2f 3e bc 8b 6f 3d 29 04 e5 3d
       -0.02123388 0.17166066 0.05848287 0.11182434
000340 09 d7 25 9a 83 39 c5 bb 8e bc 98 3c 68 2a 02 3d
       -3.4294904e-23 -0.006018819 0.018644597 0.031778723
000350 e9 a4 b6 3c cb af 64 3e c9 bf f7 3d 10 4c 32 80
       0.022295432 0.22332685 0.12097127 -4.619061e-39
000360 1b 1d ba 3c 7d d2 a4 3d 8d 81 de 3d e3 7b 00 3e
       0.022718957 0.0804796 0.108645536 0.12547259
000370 f2 73 7d 3e 35 a8 4a bb 51 56 5e 3d 7f a8 7f 3d
       0.24751261 -0.0030923013 0.054281536 0.06241655
000380 72 62 0d 3e 85 dd c4 3d 6b aa 1d 3e b5 cf ea a3
       0.13807085 0.09612564 0.1539704 -2.5458298e-17
000390 d7 a4 b7 bd 88 94 20 00 10 2f a9 3d 77 e6 a2 3d
       -0.089669876 2.992019e-39 0.082609296 0.07954114
0003a0 ff 20 a9 34 c5 29 d9 3c 30 87 fe 3d fe c6 5d 3e
       3.150271e-07 0.026509175 0.12428129 0.21657941
0003b0 c7 ee 03 3e cc 34 f2 3d 97 d9 15 bc 53 5f 47 3e
       0.12884055 0.118264765 -0.009146116 0.19469957
0003c0 f4 c6 0d 3e 81 a8 5f 3e 9c ca 2a bb 70 40 94 ad
       0.13845426 0.21841623 -0.0026060706 -1.6854268e-11
0003d0 b2 1d 29 1b fe 60 0c bd 34 d3 58 3e 2f c9 2e bc
       1.3988947e-22 -0.034272186 0.21174318 -0.010668083
0003e0 e4 aa 5c ba 1b 08 22 bd 22 4c 4d bd 1f 68 26 3e
       -0.00084177987 -0.03955851 -0.050121434 0.16250657
0003f0 07 4e 9f 3c d4 e6 4d 1e 52 62 0e bc 4d fd 2c 39
       0.019446386 1.0900344e-20 -0.008690434 0.0001649756

l1.bias f4 [32]
000000 59 35 2b 3b 18 74 1c bd e2 52 ba 3d 7f 0c 8f b8
       0.0026124327 -0.038196653 0.0909784 -6.821099e-05
000010 67 bf 52 bd c3 a1 d4 bb bd eb 36 b7 43 80 0e bd
       -0.051452067 -0.00648901 -1.0902932e-05 -0.03479029
000020 88 a6 f4 b4 9f 40 63 b1 9c a9 90 bc 0e 0e 73 3e
       -4.556971e-07 -3.306958e-09 -0.017659001 0.2373583
000030 9d 30 ae b8 a6 53 aa bd 12 ab 53 bd 06 dc 9e b9
       -8.3060215e-05 -0.08316736 -0.051676817 -0.0003030004
000040 52 ec f4 b8 3a cc f3 bc f1 43 06 b8 0e 64 b4 b6
       -0.00011678845 -0.029760469 -3.2011365e-05 -5.376066e-06
000050 ef e4 94 bd fd d4 1f b3 ef c5 c5 3b 8c e0 e4 bc
       -0.07270228 -3.7213784e-08 0.0060355584 -0.027939104
000060 cd 51 dc bc 53 c8 b3 bd 11 51 3c bd 80 bc 66 ba
       -0.026894474 -0.08778443 -0.04597575 -0.00088018924
000070 99 ec 2e bd 1b 48 a2 b6 1d ad c0 bc 17 3e 38 bc
       -0.042706106 -4.8363704e-06 -0.023520047 -0.011245272

l2.weight f4 [32, 32]
000000 5d 2d cd 3d 82 78 41 bd ff 85 31 be e0 97 43 ac
       0.10018418 -0.047234066 -0.17336272 -2.7795474e-12
000010 b3 32 ec 3d ad a7 ca 33 bf 86 29 80 aa 85 98 32
       0.115331076 9.436858e-08 -3.813593e-39 1.7755912e-08
000020 87 36 00 80 b1 f4 39 00 29 0d da bd 42 88 4a be
       -1.9561e-41 5.322402e-39 -0.10647041 -0.1977854
000030 ab 11 be b0 b2 0b 87 3d 0a 0d 17 3e 69 6e 83 1b
       -1.3829341e-09 0.065940276 0.14751068 2.1743483e-22
000040 9a 21 b0 0e 44 3c 4b bb 3f 07 38 04 a5 88 0b 00
       4.3419707e-30 -0.0031011263 2.1632423e-36 1.059209e-39
000050 f1 7c 0f 3d 94 22 3e 00 88 90 a1 3d 52 d2 2b 3c
       0.035031263 5.706205e-39 0.07888895 0.010487156
000060 a6 74 3a bc d1 56 a4 3e 70 76 98 ba d0 a6 c8 22
       -0.01138035 0.32097486 -0.0011631977 5.438673e-18
000070 78 a9 7e 3c 2d 04 81 15 92 d4 25 37 21 59 ab aa
       0.015543334 5.2109273e-26 9.884259e-06 -3.0437548e-13
000080 dc 55 98 bb d3 06 df bb f5 64 7c bb bc 82 4c 00
       -0.004648907 -0.0068062334 -0.0038512324 7.026396e-39
000090 16 9b 98 bb af 5b 08 00 ff 23 39 80 ca d7 1a 00
       -0.0046571596 7.67574e-40 -5.247536e-39 2.465133e-39
0000a0 d9 bb 12 80 62 01 22 80 6c b7 db bb eb 5a 02 bd
       -1.720426e-39 -3.122903e-39 -0.006705215 -0.031824987
0000b0 42 d5 2f 80 dd 0a a2 3b df 08 88 3c e8 69 28 80
       -4.392771e-39 0.0049451427 0.016605793 -3.711412e-39
0000c0 88 23 2f 80 7f b9 18 80 cf 7b 17 00 bf fa 14 00
       -4.329015e-39 -2.270595e-39 2.15663e-39 1.92666e-39
0000d0 0a e4 16 3a c8 e0 0e 80 3e 98 1a 3c 61 6d f5 38
       0.00057560264 -1.366333e-39 0.009435711 0.00011702884
0000e0 69 32 a2 bb 11 c9 17 3d 2d f7 2b 82 d0 62 44 80
       -0.004949857 0.037056986 -1.2634032e-37 -6.280261e-39
0000f0 38 7a 44 bb 86 74 1d 00 e4 70 23 80 7d b0 1b 80
       -0.0029980075 2.70503e-39 -3.25474e-39 -2.54287e-39
000100 2e 4f 4b 3d 30 3d b8 3b 05 6a 7c be 91 4c 05 b6
       0.04963606 0.0056225285 -0.24649818 -1.9863112e-06
000110 d3 36 da 3c e7 6d b4 38 1e 5a 02 9d 1a 36 4c 38
       0.02663747 8.60354e-05 -1.7251946e-21 4.8687776e-05
000120 37 b5 20 00 7b 87 0e 80 a0 7d 77 bc 57 f6 75 be
       3.003744e-39 -1.334298e-39 -0.015105635 -0.24019752
000130 49 1f 7c 37 11 2a d3 3d 2b ca 56 3e a7 9f d5 2e
       1.5027655e-05 0.10310758 0.20975558 9.7144785e-11
000140 f8 63 f1 ad 50 8d a1 3c 26 c2 56 a5 48 d0 48 80
       -2.7442923e-11 0.019720703 -1.8627321e-16 -6.686873e-39
000150 a2 9d cd 3d 21 61 7c 00 3e 27 5c 3e cf d6 50 3c
       0.10039832 1.1422445e-38 0.21499345 0.012746527
000160 0d 2d 45 3e f3 f8 00 3f db 92 85 bb 8c e6 71 31
       0.19255467 0.50379866 -0.0040763444 3.5201166e-09
000170 8b b1 74 bd b7 38 82 2b 08 88 44 3a 29 4b 77 b5
       -0.05973963 9.252797e-13 0.0007497077 -9.212404e-07
000180 16 6c 1d 80 be 7e 34 80 ec 0c 07 80 e6 e9 0a 00
       -2.702003e-39 -4.820912e-39 -6.47484e-40 1.002262e-39
000190 c1 6b 36 80 24 8a 1a 00 9a 00 04 80 5a 0b 2a 00
       -4.997772e-39 2.437278e-39 -3.67558e-40 3.861163e-39
0001a0 15 ca 2a 80 d4 ce 07 00 f1 fd 17 80 cb dd 2e 00
       -3.929584e-39 7.17044e-40 -2.203313e-39 4.303997e-39
0001b0 ec 78 11 00 94 50 1e 80 2c 26 29 00 e7 01 0e 80
       1.604582e-39 -2.783971e-39 3.778949e-39 -1.28638e-39
0001c0 37 ff 25 00 d4 56 1f 00 77 6e 33 00 56 3e 2c 80
       3.489467e-39 2.878048e-39 4.723238e-39 -4.063124e-39
0001d0 98 93 14 80 1c 62 1a 82 31 2d 10 80 6d 7b 4b 00
       -1.889657e-39 -1.1342289e-37 -1.48558e-39 6.931939e-39
0001e0 65 b3 1d 80 ab bc 00 80 bd 6a 48 00 fa d9 31 00
       -2.727584e-39 -6.7681e-41 6.650446e-39 4.578135e-39
0001f0 87 81 16 80 f2 0d 08 00 3e fb e8 01 67 7b 1b 80
       -2.066847e-39 7.39687e-40 8.5583855e-38 -2.523827e-39
000200 85 ad a5 ae c0 db a0 a9 f3 ce 28 00 f4 50 3e 80
       -7.5341546e-11 -7.143548e-14 3.747659e-39 -5.722841e-39
000210 39 89 12 a9 30 f6 18 00 f5 57 3f 80 63 3d 1e 80
       -3.2537534e-14 2.292367e-39 -5.817189e-39 -2.777086e-39
000220 a2 ce 2a 82 e4 8b 41 80 76 eb c5 a4 58 e9 12 00
       -1.2548928e-37 -6.01949e-39 -8.583402e-17 1.736747e-39
000230 f1 91 2e 80 66 1d 3d 00 2d e6 e4 82 c4 d8 1f 82
       -4.276787e-39 5.612511e-39 -3.3633703e-37 -1.1743684e-37
000240 08 e7 49 00 24 00 48 80 a3 82 24 00 52 36 29 80
       6.78687e-39 -6.612206e-39 3.352941e-39 -3.784742e-39
000250 dd d6 3b 80 50 92 26 80 35 b7 2a 00 04 18 43 80
       -5.495373e-39 -3.542236e-39 3.922813e-39 -6.161593e-39
000260 09 8a 52 ac 59 70 15 00 02 eb 41 00 f4 2b 20 80
       -2.991942e-12 1.968848e-39 6.053612e-39 -2.954503e-39
000270 fd 60 0a 80 c9 c3 2f 80 d2 67 09 80 71 66 3b 00
       -9.53148e-40 -4.386503e-39 -8.63763e-40 5.455043e-39
000280 98 24 4c bd 48 ea 59 bf ed 6e ec bd c2 54 14 80
       -0.049839586 -0.8512311 -0.11544595 -1.867115e-39
000290 36 2e 56 bf 7a 85 16 ba bb 62 1f 80 42 cd 88 ad
       -0.8366426 -0.00057419355 -2.882318e-39 -1.5552563e-11
0002a0 f5 c8 11 80 e6 59 16 00 7d 28 1e bf 06 13 dd bd
       -1.633293e-39 2.05263e-39 -0.6178053 -0.10794644
0002b0 ec bf 91 22 a4 59 e9 3c 32 3b 9e 3d a6 34 83 b5
       3.9505534e-18 0.028485127 0.07726134 -9.775583e-07
0002c0 6c 9f 15 80 ce 01 6d ad ad 76 1d 80 02 c9 08 80
       -1.985735e-39 -1.3472291e-11 -2.705802e-39 -8.06792e-40
0002d0 de 60 50 3d f3 01 0e 00 3a ba 1b 3e 41 c8 c8 bc
       0.05087363 1.286396e-39 0.15207759 -0.024509551
0002e0 76 7e 21 3e e7 c8 6a 3e 13 02 65 3b 93 b2 92 ac
       0.15770897 0.229282 0.0034943863 -4.1693953e-12
0002f0 af 20 0b be 81 8a 08 aa 56 c5 01 3b 4b 72 bb 39
       -0.13586687 -1.212728e-13 0.001980146 0.00035752574
000300 3f 66 af 3d ee 1d 54 bf 1a 0f a6 bd 4a 1e 15 80
       0.08564424 -0.8285817 -0.08108349 -1.939411e-39
000310 76 d1 55 bf 90 32 d2 b9 9a 71 25 80 f7 c9 22 ac
       -0.8352274 -0.00040091993 -3.438666e-39 -2.3133698e-12
000320 f0 8d 23 80 7d c7 15 00 71 a3 15 bf 5b 07 24 be
       -3.26516e-39 2.000108e-39 -0.58452517 -0.16018431
000330 32 dd a2 20 93 e0 8d bc a6 0a a8 3d 0c 7c c4 b4
       2.7590242e-19 -0.017319 0.08205156 -3.65981e-07
000340 36 44 15 00 c9 5a 60 ac 98 6d 25 80 5f a0 40 80
       1.953015e-39 -3.188271e-12 -3.437228e-39 -5.935002e-39
000350 02 16 97 bd 71 4a 00 80 36 77 1b 3e d8 b7 c8 bc
       -0.073772445 -2.6705e-41 0.15182194 -0.024501726
000360 b3 1a 26 3d 13 d2 6d 3e 86 c8 31 3a 42 03 0c ab
       0.040552806 0.23224668 0.00067818945 -4.974251e-13
000370 8e 20 f7 bd 29 bb 2c a8 4b 9b d0 3a 8f c9 88 39
       -0.12066756 -9.588502e-15 0.0015915422 0.00026090114
000380 db 53 d7 3d 2e e1 4b bf 39 06 d0 bd 03 fc 14 80
       0.10514041 -0.7964047 -0.10157437 -1.927115e-39
000390 00 1d 4c bf 05 bd d9 b9 48 97 1d 80 4a a3 43 ac
       -0.7973175 -0.00041530296 -2.717499e-39 -2.780181e-12
0003a0 bf a6 04 80 7d 73 15 00 7c 82 12 bf 30 e8 d1 bd
       -4.27159e-40 1.969975e-39 -0.57230353 -0.102493644
0003b0 98 6d 7c 9f f6 66 b5 3d e0 fb 8e 3d 1f ba 09 b5
       -5.345373e-20 0.08857529 0.06981635 -5.130732e-07
0003c0 07 c4 42 00 ed 1b 8a ac 60 91 27 00 2a 43 3c 80
       6.131464e-39 -3.9252963e-12 3.633735e-39 -5.534224e-39
0003d0 74 6b 66 bc ea fd 01 00 6e cb ab 3d 20 b6 c8 bc
       -0.014063705 1.82923e-40 0.083884105 -0.024500906
0003e0 02 2c af ba 0d 84 7c 3e cb b9 bf 3b 8c b8 2b ab
       -0.0013364556 0.24659748 0.0058510057 -6.1007514e-13
0003f0 3b 92 f5 bd 00 68 5f a8 5e 3d d5 3a 32 72 8d 39
       -0.11990782 -1.2401538e-14 0.0016268899 0.00026978698

l2.bias f4 [32]
000000 5b e4 bc 3d 7e 77 d4 bc 28 be 2b 3e 30 53 60 8d
       0.09223243 -0.025935885 0.16771758 -6.9125463e-31
000010 7a 31 b5 b8 df 93 b6 3d a1 9d b2 3d 5b 76 9b 3d
       -8.639968e-05 0.08914923 0.087214716 0.07590934
000020 44 ea 0c 3e e6 7b 29 bc 49 a1 99 3d 98 88 67 3e
       0.1376124 -0.010344481 0.07501466 0.226107
000030 3d 3e 30 95 e7 3a 95 3d b7 62 df bc 49 9a 93 3b
       -3.5592014e-26 0.07286625 -0.02726875 0.004504476
000040 72 43 c8 3c 4e 42 46 3e 4c f8 0e bd 8b 1c ba b6
       0.024446223 0.1936123 -0.034904763 -5.546555e-06
000050 d5 1a 58 9c 7b 74 26 bc 4f 5e a5 b1 74 37 45 a3
       -7.1503085e-22 -0.010159607 -4.8128537e-09 -1.0691134e-17
000060 f7 70 d9 bb e8 35 b6 a3 2a 57 21 3e 17 67 5e b1
       -0.006635781 -1.975531e-17 0.15755907 -3.2363852e-09
000070 c1 c8 3c 3e d8 4c 5b bc 84 e7 b9 3d e4 bd 42 b5
       0.18435957 -0.01338502 0.09077361 -7.254696e-07

l3.weight f4 [1, 32]
000000 12 b5 95 bd 55 7d 68 bb 87 e3 3d be e3 50 c6 2c
       -0.07309927 -0.0035475094 -0.18543826 5.6364787e-12
000010 53 a2 29 bb 84 44 49 3f 48 fb 39 3f 70 af 3b 3f
       -0.0025884106 0.7862017 0.7264905 0.7331457
000020 ca a0 e5 bd a4 4c 52 3c ef cb 08 3f ab c7 7a be
       -0.11212309 0.012835655 0.5343618 -0.2449023
000030 9c a1 6a 00 ed ee 90 3d 68 ae 7c be f7 49 96 39
       9.792537e-39 0.070768215 -0.24675906 0.00028665338
000040 db 5b d2 be 44 87 34 be b3 7e f4 bd ea 00 61 3b
       -0.41085705 -0.17629725 -0.119382285 0.003433282
000050 34 46 11 2e 80 90 92 38 6d 5d 8d 3a 13 b4 50 b7
       3.3031536e-11 6.988738e-05 0.0010785289 -1.2439693e-05
000060 bd 73 d7 bb 2c dc 49 9c a1 ee dd bd 88 d0 00 37
       -0.0065750764 -6.6789887e-22 -0.108365305 7.677947e-06
000070 c0 ee 15 be 05 08 0f bd 18 ad 65 bd 05 fd 19 37
       -0.14641857 -0.034919757 -0.05607328 9.178421e-06
