net/krk_model_v01.pth (torch, 470536 bytes, 7 tensors)

ft.weight f4 [512, 193]
-0.4661696 -0.3593243 -0.7335192 -0.72318673 -0.517158 -0.6010732 -0.47818714 -0.39959222
-0.7287552 -0.5219746 -0.59642416 -0.03388355 0.7064178 -0.54353887 0.1874097 -0.6303383
0.07611794 -0.30899486 0.47944972 0.3319135 0.24991073 -0.5278171 -0.38687533 -0.699596
-0.52285945 -0.7808086 -0.25569677 0.26351798 0.1758714 0.508136 -0.4867145 -0.03851815
-0.38459915 -0.55893767 0.072803065 -0.10122693 -0.25470945 0.24180889 -0.011362904 -0.86062986
-0.08183635 -0.36623642 -0.1883626 -0.37430638 0.11687175 0.28353482 -0.40245378 -0.023995493
-0.19036734 -0.1580649 0.012464893 0.26747963 0.25195137 0.2530063 0.19986841 0.49627772
-0.5951333 0.30083212 0.13454239 -0.21778424 0.12533735 0.08956595 0.08817258 0.3207677
0.55517834 0.14290728 0.40546662 0.2450136 -0.2750397 0.14455853 -0.23756364 -0.05709792
-0.21204236 0.18779637 -0.6519528 0.5333557 0.12019522 0.3432562 -0.042381864 -0.05444781
0.19704482 -0.1093897 0.17514347 0.10563436 0.35964698 0.1890286 -0.024871996 0.18744062
-0.31570864 -0.3634706 0.12509528 0.43532944 0.1850854 0.1461689 -0.23993556 -0.04809288
-0.082604125 0.10344782 -0.09077795 -0.48605424 -0.7726698 -0.037020456 -0.4901556 -0.4407272
-0.2731444 0.098893605 -0.3692272 -0.38029948 -0.64744365 -0.23235345 0.015987746 -0.50259954
-0.26345128 -0.758671 -0.750525 -0.53346795 0.23995332 -0.017705824 -0.21565552 -0.015479664
-0.6729506 -0.2589025 -0.12860343 -0.7903333 -0.08323514 -0.06515196 -0.07889949 0.24718302
0.34831744 0.50500745 -0.7080868 0.37591302 -0.13556029 -0.18527803 0.14453225 0.2539491
0.4570568 0.23152347 -0.31863523 -0.68891186 -0.2854882 0.23807792 -0.41924953 -1.0275141
-0.16290176 0.090721875 -0.2021875 0.34469697 0.06658274 -0.25203317 -0.97949094 -0.3274892
-0.030447604 -0.17298384 0.1012731 -0.18706182 -0.02494927 -0.7902732 0.5511665 -0.6609044
-0.71241075 0.09797643 -0.052660882 -0.4556297 -0.27604344 0.063094504 -0.20205235 -0.5397438
0.30631113 0.106975235 -0.48089132 -0.30249357 0.119134136 0.46868205 -0.28578973 -0.40975088
-0.19275855 0.30899015 -0.5662033 0.32826915 0.3827547 -0.5026349 0.29439998 -0.16693814
0.104054734 -0.21943097 -0.26694041 -0.42889637 -0.26906648 -0.20769186 0.052497722 -0.21424206
-0.15049857 -0.27458113 -0.32291266 0.024607832 0.0096324375 -0.31356177 -0.47486392 0.267212
-0.40406048 -0.28705642 0.09941037 -0.00921877 0.1342419 0.414574 0.09625067 -0.07602929
0.26457697 -0.09912483 -0.056621466 -0.24327895 -0.53613913 -0.63293874 0.22462048 0.14037831
-0.4763984 0.021282667 -0.27562624 0.092568286 -0.023465557 0.14978145 -0.07450236 -0.2606266
0.23233567 0.20831938 0.18288305 0.04687021 -0.43353194 -0.048036333 -0.54647 -0.5367322
0.103840046 -0.331284 -0.3839393 -0.044816196 0.2994729 -0.38312924 -0.20729499 0.32695505
0.18040958 -0.5155969 0.064324304 -0.4165937 -0.08538629 -0.3354714 -0.45238078 -0.1762537
0.4322944 0.12666136 0.39124957 -0.19002277 0.028860945 -0.33685136 -0.16295153 0.24492566
00000000: c8ad eebe 5bf9 b7be eac7 3bbf c422 39bf
00000010: 7764 04bf efdf 19bf f2d4 f4be 5a97 ccbe
00000020: b38f 3abf 21a0 05bf 41af 18bf 7ac9 0abd
00000030: ccd7 343f 5d25 0bbf 54e8 3f3e da5d 21bf
00000040: b9e3 9b3d 9334 9ebe 6f7a f53e 91f0 a93e
00000050: 99e8 7f3e 051f 07bf 8614 c6be b918 33bf
00000060: 1eda 05bf 13e3 47bf b0ea 82be d4eb 863e
00000070: a217 343e 3315 023f a532 f9be 35c5 1dbd
00000080: 2eea c4be 8a16 0fbf c619 953d 1150 cfbd
00000090: 4769 82be c09c 773e 792b 3abc 3d52 5cbf
000000a0: d199 a7bd 5783 bbbe 20e2 40be 16a5 bfbe
000000b0: 755a ef3d 7a2b 913e 6c0e cebe 3292 c4bc
000000c0: a8ef 42be c4db 21be 8d39 4c3c 17f3 883e
000000d0: c5ff 803e 0b8a 813e 4eaa 4c3e 1d18 fe3e
000000e0: a85a 18bf ab06 9a3e 7bc5 093e d502 5fbe
000000f0: 6f58 003e 5a6e b73d d393 b43d aa3b a43e
00000100: 2b20 0e3f 4956 123e 5299 cf3e d8e4 7a3e
00000110: 01d2 8cbe 2707 143e e243 73be 82df 69bd
00000120: a221 59be b14d 403e 61e6 26bf 008a 083f
00000130: e928 f63d 47bf af3e 9b98 2dbd ab04 5fbd
00000140: 1ec6 493e b507 e0bd cf58 333e d456 d83d
00000150: a623 b83e b790 413e 5bc0 cbbc 6ff0 3f3e
00000160: 90a4 a1be d218 babe fa18 003e 80e3 de3e
00000170: 0787 3d3e 4dad 153e abb1 75be 0afd 44bd
00000180: 5a2c a9bd 73dc d33d cae9 b9bd 1adc f8be
00000190: b0cd 45bf c3a2 17bd adf5 fabe ffa6 e1be
000001a0: 95d9 8bbe bb88 ca3d 590b bdbe 9db6 c2be
000001b0: debe 25bf 10ee 6dbe bcf8 823c 5daa 00bf
000001c0: 16e3 86be 4338 42bf 6822 40bf 5b91 08bf
000001d0: 53b6 753e ce0b 91bc cdd4 5cbe 6b9e 7dbc
000001e0: 7e46 2cbf de8e 84be 9eb0 03be 4853 4abf
000001f0: 2f77 aabd 646e 85bd 0e96 a1bd 8c1d 7d3e
00000200: aa56 b23e 2b48 013f 2d45 35bf ac77 c03e
00000210: 51d0 0abe 86b9 3dbe 4300 143e 9e05 823e
00000220: 5903 ea3e 7d14 6d3e 2824 a3be 875c 30bf
00000230: 822b 92be b3ca 733e e0a7 d6be 9585 83bf
00000240: b8cf 26be 64cc b93d 3d0a 4fbe 1f7c b03e
00000250: 885c 883d 7e0a 81be ebbf 7abf aaac a7be
00000260: 416d f9bc ad22 31be 4568 cf3d 228d 3fbe
00000270: 6962 ccbc 584f 4abf 3f19 0d3f 0831 29bf
00000280: 8d60 36bf dea7 c83d f0b2 57bd 4c48 e9be
00000290: 9155 8dbe b137 813d d0e6 4ebe a62c 0abf
000002a0: d0d4 9c3e d515 db3d 6337 f6be 70e0 9abe
000002b0: 99fc f33d 18f7 ef3e 0853 92be deca d1be
000002c0: 7f62 45be f533 9e3e b3f2 10bf e512 a83e
000002d0: 6df8 c33e aeac 00bf 98bb 963e d5f1 2abe
000002e0: a61a d53d 83b2 60be 6aac 88be 4e98 dbbe
000002f0: 15c3 89be 2dad 54be da07 573d 4562 5bbe
00000300: 4c1c 1abe e695 8cbe cf54 a5be 5d96 c93c
00000310: 5fd1 1d3c 2b8b a0be 5d21 f3be 03d0 883e
00000320: 04e1 cebe 0ff9 92be aa97 cb3d 530a 17bc
00000330: b576 093e 0b43 d43e 121f c53d 3fb5 9bbd
00000340: a276 873e f501 cbbd e9eb 67bd 1e1e 79be
00000350: 6a40 09bf 4608 22bf e902 663e 55bf 0f3e
00000360: 7eea f3be fd58 ae3c e21e 8dbe 7194 bd3d
00000370: d73a c0bc 4f60 193e b194 98bd da70 85be
00000380: 67e9 6d3e ad51 553e b245 3b3e fafa 3f3d
00000390: e6f7 ddbe bfc1 44bd 75e5 0bbf 4867 09bf
000003a0: 17aa d43d 0e9e a9be b193 c4be 3091 37bd
000003b0: 8354 993e 8429 c4be 2345 54be a766 a73e
000003c0: 4abd 383e 29fe 03bf 76bc 833d c54b d5be
000003d0: 02df aebd e8c2 abbe 749e e7be da7b 34be
000003e0: b155 dd3e 84b3 013e dd51 c83e 5495 42be
000003f0: ca6d ec3c c877 acbe c4dc 26be cbcd 7a3e

ft.bias f4 [512]
-0.19571213 -0.31273755 -0.75778556 -0.10168777 -0.3982539 -0.28507808 -0.4921473 -0.14414872
-0.039075863 -0.43525127 -0.36878133 -0.25663716 -0.36960912 -0.1999839 -0.07077207 -0.47282588
-0.26735634 -0.21578273 -0.30295673 -0.14491895 -0.069481775 -0.07784302 -0.19136259 -0.40217823
-0.20771976 -0.27569133 -0.29747772 -0.19847819 -0.29007104 -0.037173104 -0.16202676 -0.13319746
-0.22214451 -0.026435906 -0.3937417 -0.41646004 -0.1592073 -0.27324334 -0.47331145 -0.0069740666
-0.25438303 -0.17669295 -0.23239575 -0.36460423 -0.051272478 -0.4487231 -0.49045804 -0.62554634
-0.269722 -0.09747374 -0.04795766 -0.12299835 -0.18276729 -0.10037726 -0.034766812 -0.3035334
-0.19323593 -0.027313266 -0.21207367 -0.33795327 -0.23486006 -0.5723424 -0.05855283 -0.25295165
-0.2772004 -0.29732904 -0.22235379 -0.37433672 -0.03127207 -0.44629323 -0.057407845 -0.152619
-0.26096764 -0.33216792 -0.4016185 -0.19813766 -0.2304354 -0.20918936 -0.49328125 -0.30682108
-0.17315772 -0.11631247 -0.14889714 -0.2878766 -0.14680886 -0.110067785 -0.14473934 -0.09427421
-0.04990206 -0.2663839 -0.013828241 -0.42105913 -0.30078548 -0.2076589 -0.20942019 -0.22478767
-0.1353314 -0.56516325 -0.34073946 -0.17915833 -0.1454614 -0.23795395 -0.23939599 -0.3000467
-0.40936592 -0.17676213 -0.07536803 -0.07872058 -0.34794128 -0.18290363 -0.24332207 -0.17170317
-0.35727513 -0.31627566 -0.30822667 -0.24818623 -0.25915357 -0.14538002 -0.26908726 -0.03114494
-0.24229631 -0.18125726 -0.114097945 -0.44664744 -0.552385 -0.35793766 -0.53593224 -0.2705803
-0.34878314 -0.21483606 -0.39411697 -0.24716009 -0.15407123 -0.16702357 -0.47778645 -0.23828787
-0.26955253 -0.31084543 -0.13999182 -0.36653924 -0.44050378 -0.14294289 -0.16906443 -0.12387731
-0.17648478 -0.31440723 -0.21150647 -0.10687529 -0.23966287 -0.23495257 -0.47251707 -0.28650522
-0.283746 -0.27314624 -0.22317438 -0.3555434 -0.121216744 -0.25854567 -0.089353725 -0.28438655
-0.2334312 -0.35085595 -0.24694042 -0.22171162 -0.06691957 -0.023278376 -0.14264432 -0.24541636
0.019232426 -0.18883844 -0.12155149 -0.20302854 -0.2794162 -0.22454362 0.060807202 -0.2959025
-0.09604421 -0.29068953 -0.43048823 -0.40023154 -0.4656472 -0.2609139 -0.4450499 -0.18953232
-0.17289828 -0.060104243 -0.20779003 -0.37879062 -0.275405 -0.063598126 -0.17827044 -0.23899607
-0.4165421 -0.8257656 -0.56348276 -0.32132453 -0.08408196 -0.10705994 -0.14281552 -0.088794865
-0.3328738 -0.42975178 -0.22391514 -0.12403643 -0.21670696 -0.13695548 -0.28213298 -0.041662786
-0.60915715 -0.22955732 -0.24875277 0.11784449 -0.2597186 -0.15237656 -0.20187473 -0.2601487
-0.22395241 -0.2743501 -0.2567563 -0.36468896 -0.18974243 0.005110182 -0.18447194 -0.17929271
-0.090727866 -0.16932195 -0.109748766 -0.25333422 -0.11718228 -0.3269461 -0.30246654 -0.30123618
-0.3585981 -0.28788844 -0.24184312 -0.18176648 -0.17457557 -0.07779243 -0.23741859 -0.63287395
-0.3670523 -0.25740832 -0.16485493 -0.30886537 -0.26106778 -0.22430071 -0.7318076 -0.15057969
-0.10180333 -0.38513654 -0.07883177 -0.48711324 -0.8163749 -0.17989293 -0.17200495 -0.12950462
00000000: c368 48be 231f a0be 3cfe 41bf ad41 d0bd
00000010: efe7 cbbe c1f5 91be bbfa fbbe b99b 13be
00000020: 030e 20bd 41d9 debe e8d0 bcbe f265 83be
00000030: 683d bdbe 94c8 4cbe f2f0 90bd 3c16 f2be
00000040: eee2 88be 26f6 5cbe 251d 9bbe a265 14be
00000050: 764c 8ebd 296c 9fbd 8ef4 43be 4eea cdbe
00000060: 7db4 54be 6a27 8dbe 004f 98be de3d 4bbe
00000070: 3184 94be d342 18bd 58ea 25be ea64 08be
00000080: da79 63be 1d90 d8bc 8398 c9be 403a d5be
00000090: 3d07 23be 8de6 8bbe e155 f2be b686 e4bb
000000a0: 7e3e 82be ffee 34be 27f9 6dbe 68ad babe
000000b0: 1703 52bd 09bf e5be 511d fbbe ce23 20bf
000000c0: 0119 8abe 50a0 c7bd 406f 44bd 8fe6 fbbd
000000d0: 5927 3bbe 9892 cdbd a567 0ebd bb68 9bbe
000000e0: a4df 45be 12c0 dfbc d729 59be 3608 adbe
000000f0: 287f 70be 0885 12bf 18d5 6fbd e182 81be
00000100: 36ed 8dbe 833b 98be b6b0 63be 10a9 bfbe
00000110: 2417 00bd 8c80 e4be 7d24 6bbd 2848 1cbe
00000120: 8d9d 85be ea11 aabe f1a0 cdbe 99e4 4abe
00000130: 42f7 6bbe bc35 56be 5c8f fcbe a717 9dbe
00000140: 4250 31be 3b35 eebd 7e78 18be 9064 93be
00000150: 1055 16be 386b e1bd 8d36 14be d612 c1bd
00000160: 1a66 4cbd 7863 88be d98f 62bc 1095 d7be
00000170: 8e00 9abe 89a4 54be 3f72 56be bd2e 66be
00000180: 5194 0abe 8aae 10bf 6775 aebe 4875 37be
00000190: d5f3 14be 33aa 73be 3924 75be b99f 99be
000001a0: 6998 d1be 2201 35be 8e5a 9abd 4138 a1bd
000001b0: 5c25 b2be 174b 3bbe 6c29 79be f5d2 2fbe
000001c0: c4ec b6be e2ee a1be e3cf 9dbe 8824 7ebe
000001d0: c7af 84be 80de 14be cec5 89be ac23 ffbc
000001e0: 861c 78be 819b 39be 2fac e9bd f9ae e4be
000001f0: 1a69 0dbf 9b43 b7be db32 09bf 8089 8abe
00000200: b493 b2be fcfd 5bbe b3c9 c9be 8917 7dbe
00000210: d9c4 1dbe 3a08 2bbe 6da0 f4be bc01 74be
00000220: ca02 8abe 2227 9fbe 045a 0fbe 08ab bbbe
00000230: b689 e1be 9f5f 12be 3a1f 2dbe 63b3 fdbd
00000240: 6db8 34be fcf9 a0be 2795 58be 6fe1 dabd
00000250: 2f6a 75be 6897 70be c2ed f1be d0b0 92be
00000260: 2847 91be d3d9 8bbe d387 64be c909 b6be
00000270: 7c40 f8bd 1960 84be 16ff b6bd 1d9b 91be
00000280: 9708 6fbe 64a3 b3be f3dd 7cbe 5f08 63be
00000290: 210d 89bd 4bb2 bebc 5a11 12be 6d4e 7bbe
000002a0: 528d 9d3c dd5e 41be fdef f8bd b7e6 4fbe
000002b0: a40f 8fbe c3ee 65be f910 793d 8880 97be
000002c0: d4b2 c4bd 42d5 94be f468 dcbe 26eb ccbe
000002d0: 4f69 eebe 8296 85be 95dd e3be c314 42be
000002e0: 3f0c 31be de2f 76bd e9c6 54be d8f0 c1be
000002f0: e201 8dbe bc3f 82bd 878c 36be 63bb 74be
00000300: 0245 d5be 6065 53bf 6840 10bf a684 a4be
00000310: 2a33 acbd 3e42 dbbd 3b3e 12be 15da b5bd
00000320: 6f6e aabe 6d08 dcbe 034a 65be d006 febd
00000330: 6ee8 5dbe 0f3e 0cbe bc73 90be 99a6 2abd
00000340: b9f1 1bbf 1311 6bbe 0cb9 7ebe 7458 f13d
00000350: d6f9 84be 9a08 1cbe 40b8 4ebe 3632 85be
00000360: c853 65be 9e77 8cbe 9075 83be 83b8 babe
00000370: d74b 42be 5073 a73b 36e6 3cbe 8298 37be
00000380: 88cf b9bd bc62 2dbe f6c3 e0bd 06b5 81be
00000390: 43fd efbd 7b65 a7be e5dc 9abe a13b 9abe
000003a0: 2c9a b7be 1d66 93be b9a5 77be fe20 3abe
000003b0: f0c3 32be a351 9fbd dc1d 73be 0704 22bf
000003c0: 47ee bbbe 06cb 83be bbcf 28be 9a23 9ebe
000003d0: adaa 85be 16af 65be be57 3bbf 9031 1abe
000003e0: 447e d0bd 9e30 c5be 8d72 a1bd e866 f9be
000003f0: f2fd 50bf da35 38be 1122 30be dc9c 04be

l1.weight f4 [32, 512]
-0.014204235 -0.0350316 -0.03857544 -0.038107138 -0.050303593 0.031798154 -0.022597516 0.046015892
0.03052089 0.0027533327 0.006593468 -0.060866736 -0.0046108845 0.011068882 -0.034932442 -0.011025196
-0.032385554 -0.015206629 -0.013838338 0.0035859512 -0.0324636 -0.03821633 -0.0015888124 -0.032900315
0.01567391 -0.04703445 -0.099588014 -0.06305918 -0.009681225 -0.047218177 -0.006952854 -0.00023984781
-0.009325315 -0.021707593 -0.07589906 -0.0037884952 -0.015219162 -0.064294316 -0.018153058 -0.037631486
-0.03172933 0.010393022 0.014804407 0.038385306 -0.022113733 0.015083279 -0.0762442 0.017871108
-0.05132313 -0.08072276 -0.078511976 -0.05284621 -0.008434618 -0.042059142 -0.07158626 -0.07017365
-0.02190399 -0.008826837 0.0022891103 -0.0017992612 -0.06541776 -0.037235107 -0.050138865 -0.00808011
-0.05825039 -0.05053349 -0.07585071 -0.030993074 -0.06416626 0.0025250327 -0.0024600993 -0.02293546
-0.029570993 -0.04907749 -0.011666291 -0.011793521 -0.023997579 -0.044230916 0.023641039 0.039564714
-0.026809826 -0.027261766 -0.051486664 0.011256191 -0.049665432 -0.08353925 -0.031713095 -0.053179756
-0.07320573 -0.032986905 -0.094297275 -0.041071557 -0.091000475 -0.08755551 -0.07812056 -0.0728901
0.060759973 -0.034260724 -0.044827364 -0.015253141 -0.014416465 -0.050452527 -0.025912266 -0.028362475
-0.048249543 -0.02428014 -0.020014817 -0.07426852 -0.01626864 -0.006987506 -0.0021395492 -0.024624575
0.00608833 -0.05915554 -0.09209085 -0.047021843 0.0057004406 -0.060209118 -0.047933098 -0.018688722
0.0148121845 -0.019429028 -0.033806197 -0.05734957 -0.060100034 -0.079343654 0.022332529 -0.03564011
0.060577117 -0.029559476 -0.06998553 -0.010581394 -0.06455272 -0.010130051 -0.099438965 -0.029838957
-0.058156185 -0.05037383 0.0058730263 -0.027268413 0.005161568 -0.0045673056 -0.06455057 -0.030289881
-0.0015900402 0.0027370064 -0.035916857 -0.06003211 0.0039022511 -0.035974637 -0.050883625 -0.04246344
-0.029830737 -0.02961172 -0.06233486 -0.0143570565 -0.038459484 -0.014914161 -0.069604106 -0.024133345
-0.008465222 -0.02509327 -0.016655622 -0.06676519 -0.0138109345 0.033600662 -0.04980564 -0.069634184
0.0064284545 -0.06718528 -0.046524115 0.0076196706 0.012426023 -0.0058688642 -0.05086603 0.033075202
-0.003371225 -0.035147708 -0.003212264 -0.07524819 -0.06532844 -0.059351243 -0.08357733 -0.046770733
-0.041695613 -0.02770012 0.034004655 -0.03488289 -0.018760674 -0.021257455 -0.03714483 -0.059101272
0.011822411 -0.008694444 -0.0076003456 -0.06527745 -0.0543864 -0.041715283 0.05575866 0.010466501
-0.04568635 -0.039614383 0.004195362 -0.026642539 -0.018822176 0.052148823 -0.009205967 -0.045020103
-0.007750852 0.044397093 -0.027981287 -0.058552388 -0.00255245 -0.0681153 -0.018218914 0.021136997
0.020140735 0.006698004 -0.055316906 -0.04473178 -0.026226468 -0.08366581 -0.018441914 -0.015859075
-0.044590034 0.0053192233 -0.025799591 -0.062278196 0.0037601404 -0.035280723 -0.039914522 0.021838726
-0.057817645 -0.06082281 -0.048079148 -0.034089115 -0.015676998 -0.013574222 -0.048186697 -0.0061914087
-0.0070907627 -0.00031362704 0.0008304929 -0.02166671 -0.016097775 -0.009053919 -0.049829572 0.03416962
-0.040358722 -0.00839187 -0.045375902 0.021729147 -0.026865015 0.021011306 -0.004022806 -0.02950794
00000000: e1b8 68bc 4c7d 0fbd 4801 1ebd 3b16 1cbd
00000010: 240b 4ebd c83e 023d 6d1e b9bc 297b 3c3d
00000020: f206 fa3c 4271 343b 050e d83b 664f 79bd
00000030: e716 97bb 425a 353c 5215 0fbd 06a3 34bc
00000040: b7a6 04bd 3a25 79bc 32ba 62bc 4702 6b3b
00000050: 8df8 04bd ba88 1cbd b33f d0ba 7bc2 06bd
00000060: 9266 803c 32a7 40bd cdf4 cbbd 2c25 81bd
00000070: 009e 1ebc d967 41bd c4d4 e3bb a87f 7bb9
00000080: 35c9 18bc 1fd4 b1bc f770 9bbd 6748 78bb
00000090: cb59 79bc bdac 83bd b9b5 94bc 7923 1abd
000000a0: 9df6 01bd 7e47 2a3c 2f8e 723c e939 1d3d
000000b0: dc27 b5bc dc1f 773c eb25 9cbd 6e66 923c
000000c0: 3438 52bd f951 a5bd e3ca a0bd 4475 58bd
000000d0: 5a31 0abc 3546 2cbd d19b 92bd 34b7 8fbd
000000e0: ff6f b3bc 709e 10bc e604 163b 30d5 ebba
000000f0: bff9 85bd d783 18bd 695e 4dbd 7062 04bc
00000100: f697 6ebd 34fc 4ebd 9e57 9bbd 30e5 fdbc
00000110: 9a69 83bd 057b 253b 9e39 21bb 25e3 bbbc
00000120: de3e f2bc 7a05 49bd f923 3fbc 9d39 41bc
00000130: 9296 c4bc 7a2b 35bd daaa c13c 9c0e 223d
00000140: 48a0 dbbc 1154 dfbc aee3 52bd e36b 383c
00000150: fb6d 4bbd a016 abbd 97e5 01bd 04d3 59bd
00000160: e3ec 95bd 471d 07bd ee1e c1bd a63a 28bd
00000170: 755e babd 4e50 b3bd acfd 9fbd 6847 95bd
00000180: 73df 783d f954 0cbd e69c 37bd 4fe8 79bc
00000190: 0933 6cbc 4fa7 4ebd f645 d4bc 6c58 e8bc
000001a0: 50a1 45bd 25e7 c6bc 1df6 a3bc 181a 98bd
000001b0: d045 85bc 73f7 e4bb ae37 0cbb 7ab9 c9bc
000001c0: 9d80 c73b 144d 72bd 219a bcbd fa99 40bd
000001d0: c3ca ba3b d69d 76bd 7f55 44bd 1719 99bc
000001e0: ceae 723c a029 9fbc 5e78 0abd 62e7 6abd
000001f0: 742b 76bd ed7e a2bd b5f2 b63c 5dfb 11bd
00000200: b61f 783d b726 f2bc 9354 8fbd 955d 2dbc
00000210: 3734 84bd 83f8 25bc a8a6 cbbd d470 f4bc
00000220: 2e35 6ebd ca54 4ebd 8472 c03b 0262 dfbc
00000230: 5f22 a93b 56a9 95bb 1733 84bd 7c22 f8bc
00000240: e568 d0ba 595f 333b 8e1d 13bd 3be4 75bd
00000250: e9bc 7f3b 245a 13bd 596b 50bd 25ee 2dbd
00000260: 975f f4bc 4794 f2bc d752 7fbd dc39 6bbc
00000270: b187 1dbd 865a 74bc 998c 8ebd 4bb3 c5bc
00000280: b7b1 0abc 6790 cdbc 5f71 88bc 30bc 88bd
00000290: 4247 62bc d9a0 093d 0001 4cbd 5e9c 8ebd
000002a0: c9a5 d23b 7098 89bd 1290 3ebd 6eae f93b
000002b0: 8596 4b3c 9a4f c0bb e658 50bd dd79 073d
000002c0: c5ef 5cbb 0bf7 0fbd d984 52bb b91b 9abd
000002d0: ebca 85bd 4a1a 73bd 972a abbd ab92 3fbd
000002e0: 05c9 2abd 5deb e2bc 7748 0b3d 5ce1 0ebd
000002f0: fcaf 99bc 1d24 aebc 2d25 18bd 2d14 72bd
00000300: c9b2 413c 2473 0ebc 520c f9bb 2fb0 85bd
00000310: 46c4 5ebd a5dd 2abd 3163 643d b07b 2b3c
00000320: 9c21 3bbd b142 22bd 3f79 893b 7441 dabc
00000330: f730 9abc 019a 553d a0d4 16bc 0067 38bd
00000340: dcfa fdbb bad9 353d 0339 e5bc a1d4 6fbd
00000350: 0147 27bb 0980 8bbd d53f 95bc 7f27 ad3c
00000360: 2ffe a43c ee7a db3b fb93 62bd ac38 37bd
00000370: e4d8 d6bc fb58 abbd 7f13 97bc e4ea 81bc
00000380: 0aa4 36bd e14c ae3b aa59 d3bc 6c17 7fbd
00000390: b06c 763b 8582 10bd 697d 23bd 21e7 b23c
000003a0: 32d2 6cbd 5721 79bd a4ee 44bd 07a1 0bbd
000003b0: 0c6d 80bc 6a66 5ebc 6a5f 45bd 4de1 cabb
000003c0: a159 e8bb 4f6e a4b9 6fb5 593a 627e b1bc
000003d0: 7bdf 83bc e456 14bc 181a 4cbd 72f5 0b3d
000003e0: 304f 25bd 0e7e 09bc 15dc 39bd 5301 b23c
000003f0: 0514 dcbc e71f ac3c bed1 83bb a3ba f1bc

l1.bias f4 [32]
-0.081508644 -0.047565788 -0.09411342 0.03881074 -0.014631651 -0.03194271 0.015486261 -0.16247241
-0.29246613 -0.03255857 -0.30327144 -0.12462301 -0.027183076 -0.06192184 0.07261171 0.0552659
-0.055949062 -0.058125 -0.05350099 -0.088172466 0.07756225 -0.04964366 -0.2589931 -0.03306286
0.0772462 -0.061757788 -0.0059323697 0.1581311 -0.04734382 -0.14541705 0.022196507 0.11323749
00000000: 01ee a6bd 58d4 42bd 89be c0bd 03f8 1e3d
00000010: 98b9 6fbc 5cd6 02bd 16ba 7d3c 2b5f 26be
00000020: 1fbe 95be 235c 05bd 6546 9bbe 593a ffbd
00000030: 0baf debc c1a1 7dbd 73b5 943d 7f5e 623d
00000040: d82a 65bd 7b14 6ebd db23 5bbd c493 b4bd
00000050: f5d8 9e3d 2757 4bbd be9a 84be ec6c 07bd
00000060: 4133 9e3d bcf5 7cbd 5364 c2bb 1eed 213e
00000070: 98eb 41bd 35e8 14be 73d5 b53c 0fe9 e73d

l2.weight f4 [32, 32]
-0.021866249 0.1703446 0.16484523 -0.2758902 -0.09680522 0.19662519 0.0062369215 -0.67788494
0.13405119 0.37527376 0.102613516 -0.07591331 -0.14052612 0.015442574 0.4126626 -0.364624
0.04267006 -0.098703615 0.07034971 0.15649159 0.56242234 -0.1138787 -0.006792547 0.093852215
0.44313982 0.1158907 0.26762146 -0.4609522 -0.1352137 0.1790732 -0.045137823 0.0036078263
-0.0043900353 0.17545334 -0.05938489 0.35180914 0.017961293 0.13152485 0.3625955 0.1821222
-0.09675175 -0.46141186 -0.06467966 -0.01448101 -2.55785 0.033455618 0.13615666 -0.40381822
0.09552971 0.11436582 0.10127324 0.048746027 0.739617 -0.026842877 0.11835765 0.02728587
0.041838825 -0.55424625 -0.27859744 -0.31581858 0.057351954 0.11560625 0.15178178 0.25577286
-0.020162059 0.15178633 -0.046846338 0.14948413 0.068898216 0.109883755 -0.050478507 -0.02128953
-1.9861022 0.09810331 -1.8935292 -2.7497642 0.08172833 -0.09158927 0.23264953 0.059484635
0.11598791 0.10914409 0.13664633 -0.054699257 0.2735041 0.043290574 -1.3009624 -0.039404325
0.1441887 -0.049876336 0.03959472 0.05219817 0.16490825 -0.10047849 0.14760147 0.35194302
0.048883304 0.69915646 -0.053528544 -0.040524237 -0.41034752 0.3504049 -0.407157 -0.24578607
0.57371926 -0.5759328 -0.12498414 0.07016802 0.050600667 0.047730487 0.25284585 -3.916689
0.011591905 -0.02132487 -0.16074097 -0.14141603 -0.4992708 -0.04168814 -0.235025 -0.06722854
0.61874104 -0.64592814 -0.53973144 -0.029038187 -0.18213287 -0.017815165 -0.26554146 -0.018736854
0.16293092 -0.13670573 0.058821928 -0.07418244 -0.06980774 -0.12948279 -0.0048674745 -0.1798967
0.043030918 0.07938224 -0.09021578 0.042252876 0.117681295 -0.161042 -0.2179008 0.06463989
0.08789826 -0.1624834 0.10459756 -0.01268712 -0.027250474 0.15856794 0.03909331 0.13255684
-0.25280243 0.1049003 -0.10739081 0.06873733 0.1480995 0.031631265 -0.18129635 -0.07239329
0.20252028 0.05815665 -0.12641104 0.23590903 -2.2421567 -0.0014123211 0.062253907 0.3382143
0.036486298 -1.8216741 0.03912444 -0.004886542 -0.05681669 -0.11041981 -0.12954491 -0.010110563
-0.014878741 0.046226434 -0.106965706 -0.03764438 1.4764485 -0.01198607 0.13624759 0.01634525
-0.043809734 -7.347611 -5.4920716 0.098466925 0.12364079 -0.13478272 0.25054377 0.3438398
0.1602162 0.6661489 -0.073567934 0.13762437 0.19326684 0.3639451 -0.15602851 -0.24597107
0.577297 -0.86011845 -0.13096298 0.061412193 -0.35734338 0.054850113 0.24450937 -2.2802942
-0.10901292 -0.07707029 -0.14456627 -0.059382696 -0.6538753 0.10290298 -0.2464583 -0.008591868
0.6161809 -0.18834355 -0.5577653 -0.61532414 -0.01430106 -0.14742798 -0.26433262 -0.008441281
-0.10816985 0.19039205 -0.117900856 0.25472423 -0.18473028 0.031388033 0.4281253 -0.025533946
-0.15868844 -2.790846 -0.053058267 -0.048012197 -2.3217537 -0.075695135 0.09748584 -0.28046802
-0.052971818 -0.059754413 -0.15960479 0.08519954 1.2667068 0.08836267 0.012858658 -0.11826983
-0.027699474 -0.7844413 -0.09235947 -0.22950006 0.038896132 0.055679332 0.1571386 0.3096323
00000000: d920 b3bc d16e 2e3e 30cd 283e 7b41 8dbe
00000010: d141 c6bd 1d58 493e 175f cc3b de89 2dbf
00000020: b744 093e e223 c03e 0927 d23d 7078 9bbd
00000030: 14e6 0fbe da02 7d3c 8348 d33e ffaf babe
00000040: cdc6 2e3d 1f25 cabd 8213 903d 553f 203e
00000050: e9fa 0f3f 3c39 e9bd 0494 debb 9735 c03d
00000060: 39e3 e23e 1a58 ed3d ae05 893e ed01 ecbe
00000070: 7675 0abe f75e 373e 70e2 38bd 4871 6c3b
00000080: 49da 8fbb 0aaa 333e 923d 73bd 5420 b43e
00000090: 9023 933c 73ae 063e 1ea6 b93e 3e7e 3a3e
000000a0: c825 c6bd 2d3e ecbe c576 84bd c241 6dbc
000000b0: d0b3 23c0 c208 093d a76c 0b3e 43c1 cebe
000000c0: 15a5 c33d a138 ea3d 5868 cf3d eaa9 473d
000000d0: 8a57 3d3f 98e5 dbbc 7f65 f23d 9e86 df3c
000000e0: 305f 2b3d 15e3 0dbf 53a4 8ebe f9b2 a1be
000000f0: e2e9 6a3d f8c2 ec3d af6c 1b3e a9f4 823e
00000100: e72a a5bc e06d 1b3e f2e1 3fbd 5e12 193e
00000110: 821a 8d3d bc0a e13d 8dc2 4ebd 6167 aebc
00000120: 9938 febf 63ea c83d 2a5f f2bf 23fc 2fc0
00000130: 2f61 a73d 2893 bbbd ae3b 6e3e 29a6 733d
00000140: 128b ed3d f086 df3d 04ed 0b3e 540c 60bd
00000150: bb08 8c3e 7551 313d f085 a6bf 6e66 21bd
00000160: 34a6 133e 214b 4cbd 132e 223d c0cd 553d
00000170: b5dd 283e abc7 cdbd d724 173e e031 b43e
00000180: dc39 483d ebfb 323f bf40 5bbd befc 25bd
00000190: 1219 d2be 4568 b33e e276 d0be 58af 7bbe
000001a0: 44df 123f 5570 13bf aff7 ffbd 40b4 8f3d
000001b0: a542 4f3d 0b81 433d 0375 813e 08ab 7ac0
000001c0: f9eb 3d3c 7eb1 aebc 4899 24be 5dcf 10be
000001d0: 6ca0 ffbe 2fc1 2abd 65aa 70be 1eaf 89bd
000001e0: d065 1e3f 8c5b 25bf d72b 0abf 7ee1 edbc
000001f0: 0a81 3abe 1cf1 91bc 0df5 87be 087e 99bc
00000200: 5dd7 263e 96fc 0bbe 43ef 703d f7ec 97bd
00000210: 5cf7 8ebd 2397 04be 567f 9fbb d736 38be
00000220: 3041 303d 2893 a23d 0dc3 b8bd 5a11 2d3d
00000230: e402 f13d 32e8 24be 6321 5fbe eb61 843d
00000240: 0104 b43d 0c62 26be 3f37 d63d a3dd 4fbc
00000250: 633c dfbc a25f 223e 4e20 203d fbbc 073e
00000260: 526f 81be f8d5 d63d b7ef dbbd 28c6 8c3d
00000270: 65a7 173e c98f 013d c0a5 39be ef42 94bd
00000280: 7a61 4f3e ab35 6e3d e571 01be 2392 713e
00000290: 7f7f 0fc0 a21d b9ba f4fd 7e3d 6d2a ad3e
000002a0: a872 153d 9e2c e9bf f340 203d 491f a0bb
000002b0: 9eb8 68bd c823 e2bd 6ca7 04be c6a6 25bc
000002c0: f7c5 73bc ee57 3d3d d610 dbbd fe30 1abd
000002d0: 44fc bc3f 3961 44bc 7d84 0b3e 79e6 853c
000002e0: d671 33bd a11f ebc0 0dbf afc0 07a9 c93d
000002f0: 6237 fd3d 7b04 0abe 4647 803e c50b b03e
00000300: b70f 243e bc88 2a3f c9aa 96bd 67ed 0c3e
00000310: bee7 453e 0357 ba3e f0c5 1fbe d7df 7bbe
00000320: bcc9 133f b930 5cbf 291b 06be 5a8b 7b3d
00000330: b6f5 b6be 83aa 603d aa60 7a3e 57f0 11c0
00000340: 2a42 dfbd 07d7 9dbd 2e09 14be 453b 73bd
00000350: 5f64 27bf ccbe d23d 915f 7cbe e8c4 0cbc
00000360: 08be 1d3f 22dd 40be b5c9 0ebf e285 1dbf
00000370: fe4e 6abc 5cf7 16be 9b56 87be 4c4d 0abc
00000380: 2888 ddbd 22f6 423e 0176 f1bd 376b 823e
00000390: ef29 3dbe bd90 003d 3d33 db3e 912c d1bc
000003a0: 397f 22be 399d 32c0 a053 59bd 70a8 44bd
000003b0: 9d97 14c0 0d06 9bbd a8a6 c73d 8199 8fbe
000003c0: faf8 58bd 0bc1 74bd 706f 23be 197d ae3d
000003d0: 7323 a23f 7df7 b43d 1fad 523c 7437 f2bd
000003e0: 02ea e2bc 25d1 48bf f626 bdbd 1002 6bbe
000003f0: 8d51 1f3d 0310 643d f1e8 203e 2088 9e3e

l2.bias f4 [32]
-0.5053946 0.114372656 -0.0044794464 0.21265234 -0.074864 0.1766187 0.2234303 0.23096149
-0.19823761 0.07905058 0.08370924 0.025576938 0.24989454 -0.20859843 0.10014855 0.13518034
0.039709564 0.0017909014 0.21815977 0.16749161 0.10223407 -0.15976104 -0.214079 0.18342936
-0.037431028 -0.20313297 0.084515326 0.088396855 0.12489669 0.16998519 -0.0058960635 0.24493942
00000000: 8a61 01bf 363c ea3d 52c8 92bb 89c1 593e
00000010: 4c52 99bd 88db 343e eaca 643e 2b81 6c3e
00000020: cdfe 4abe 45e5 a13d c06f ab3d ba86 d13c
00000030: 5be4 7f3e d49a 55be af1a cd3d b76c 0a3e
00000040: 7fa6 223d aebc ea3a 4665 5f3e ec82 2b3e
00000050: 1960 d13d 6698 23be 8637 5bbe e8d4 3b3e
00000060: 4751 19bd 1702 50be 5f16 ad3d 6909 b53d
00000070: d6c9 ff3d 9910 2e3e c433 c1bb 66d1 7a3e

l3.weight f4 [1, 32]
-4.2455463 -2.3269348 2.484969 -2.3756604 -0.08226114 -2.650023 -2.3381724 -2.3200786
0.11549739 0.83126587 2.5798063 2.590047 2.6303415 -0.045785934 2.5699217 2.675014
2.3542585 -2.6440752 2.579206 -2.6244726 2.6218638 0.0004987658 1.5185851 2.5121326
2.8724813 -0.005033395 2.4081101 -2.4419339 -2.6747425 -2.4792204 -2.578524 -2.509033
00000000: 84db 87c0 80ec 14c0 bb09 1f40 d20a 18c0
00000010: 8778 a8bd fa99 29c0 9ea4 15c0 2b7c 14c0
00000020: e589 ec3d d7cd 543f 8c1b 2540 54c3 2540
00000030: 8457 2840 088a 3bbd 9979 2440 6e33 2b40
00000040: 2cac 1640 8738 29c0 b611 2540 5cf7 27c0
00000050: 9ecc 2740 9bbf 023a ff60 c23f c8c6 2040
00000060: bcd6 3740 2def a4bb 7a1e 1a40 a548 1cc0
00000070: fb2e 2bc0 8cab 1ec0 8a06 25c0 ff93 20c0
