net/krk_model_v04.pth (torch, 120072 bytes, 7 tensors)

ft.weight f4 [128, 193]
0	0xab177ea9	-5.3821753e-13
1	0xac4ac5cb	-2.8815724e-12
2	0x2bc9d48e	1.4340905e-12
3	0x2ce25734	6.432988e-12
4	0x2cbf21c7	5.4322965e-12
5	0x2c949550	4.22299e-12
6	0x2c1431ae	2.1059643e-12
7	0xac24d8ee	-2.3426222e-12
8	0xacb93293	-5.263631e-12
9	0x2ba74029	1.1883872e-12
10	0x2c620e78	3.2124563e-12
11	0xabb25176	-1.2670271e-12
12	0x2b3a0371	6.608525e-13
13	0xac8c2ab0	-3.9837786e-12
14	0xac2f8aa7	-2.4945963e-12
15	0xac90d101	-4.1159303e-12
16	0x2b15293c	5.299266e-13
17	0xacc8265e	-5.6886015e-12
18	0x2ba3022c	1.1582449e-12
19	0xac2e5ce8	-2.477846e-12
20	0xab601763	-7.961324e-13
21	0xab6ec42f	-8.4826845e-13
22	0x2cf02396	6.825161e-12
23	0xacd91f1e	-6.1709656e-12
24	0x284a3cdc	1.1226449e-14
25	0xabe9de38	-1.6617324e-12
26	0x2a8afcb4	2.4689072e-13
27	0xab571490	-7.641188e-13
28	0xaca0fae9	-4.57533e-12
29	0xaab22c3a	-3.164984e-13
30	0xacb9d62c	-5.281794e-12
31	0xa6a1ca80	-1.1226507e-15
32	0x2b4ba99f	7.2355484e-13
33	0xac8acc0e	-3.9448505e-12
34	0x2d2debae	9.886243e-12
35	0x2b0c4c11	4.9843555e-13
36	0x2b83dffc	9.370278e-13
37	0xac91d530	-4.1448164e-12
38	0x2b8f74e8	1.0193209e-12
39	0xabc377c5	-1.3888826e-12
40	0xabb06d03	-1.2535809e-12
41	0x2beb1fb9	1.6706559e-12
42	0xac8ee166	-4.060907e-12
43	0xab6ad74c	-8.3432285e-13
44	0x2c25c0f5	2.3555023e-12
45	0x2ca3e131	4.65774e-12
46	0x29d1db70	9.319531e-14
47	0xabe0a26a	-1.5961236e-12
48	0xabdf5443	-1.586849e-12
49	0x2c15a1f4	2.1264076e-12
50	0x2c18c46e	2.170954e-12
51	0xab9bc960	-1.1069305e-12
52	0x2abcc387	3.3531183e-13
53	0x2bbfa910	1.361829e-12
54	0x2b45b3f9	7.023822e-13
55	0x2abb2024	3.3240175e-13
56	0x2ca783e3	4.761068e-12
57	0xac64437d	-3.2438212e-12
58	0x2c4b8a5e	2.8924844e-12
59	0x2c8a876c	3.9372307e-12
60	0x2c024ba1	1.8516094e-12
61	0x2ad6c41c	3.8150115e-13
62	0x2c176646	2.1515164e-12
63	0xabfaf8f7	-1.783267e-12
64	0x2b856261	9.477524e-13
65	0x2c2cbe68	2.4548367e-12
66	0xad173d22	-8.5969305e-12
67	0xab74483a	-8.678645e-13
68	0x29beecfc	8.478805e-14
69	0x29f05979	1.0673662e-13
70	0x2b8da49c	1.0064341e-12
71	0x2c12f68f	2.0884715e-12
72	0xac3d149c	-2.6869956e-12
73	0x2c9b7e66	4.419398e-12
74	0xaa9d6acb	-2.7962905e-13
75	0xabd2916e	-1.4961762e-12
76	0x28188d47	8.46833e-15
77	0xac9f69a4	-4.5307803e-12
78	0xab39d9ea	-6.602762e-13
79	0x2d18d98b	8.688504e-12
80	0x2b1aa56c	5.494136e-13
81	0x2c189a5a	2.1686181e-12
82	0xac2082d2	-2.2809987e-12
83	0xab0d62ae	-5.023021e-13
84	0xab2cff1f	-6.1460727e-13
85	0x2c9666aa	4.2746544e-12
86	0x2b9d96c1	1.1197364e-12
87	0x2b23fa4a	5.825658e-13
88	0xab20d993	-5.7145364e-13
89	0xab9277e7	-1.0407204e-12
90	0x2cd806fc	6.1398647e-12
91	0xac95882c	-4.249953e-12
92	0x2b52556e	7.4725545e-13
93	0xac3f5d65	-2.7194577e-12
94	0xad3d0d12	-1.0746308e-11
95	0xabc9c504	-1.4336592e-12
96	0x2b90e74b	1.0296012e-12
97	0x2a95db92	2.6620074e-13
98	0xac22cdca	-2.313582e-12
99	0x2c101338	2.04743e-12
100	0xacbb51ab	-5.3239266e-12
101	0x2c2a5f6d	2.4211425e-12
102	0x2bdb9b60	1.5604011e-12
103	0x2ce59eb6	6.526192e-12
104	0xac25bd02	-2.355283e-12
105	0x2ca40984	4.662217e-12
106	0xac4dd367	-2.9249604e-12
107	0xad005657	-7.295129e-12
108	0xac75d780	-3.493622e-12
109	0x2cceec07	5.8810764e-12
110	0x2d6124c3	1.2797932e-11
111	0xac29e889	-2.4145427e-12
112	0x2b47a5b5	7.0928967e-13
113	0xab8be64a	-9.940462e-13
114	0x2b440aa5	6.964796e-13
115	0xab8b887d	-9.914427e-13
116	0xac814a8b	-3.6746764e-12
117	0xab8d92ca	-1.0059395e-12
118	0xac736e0a	-3.459346e-12
119	0x2c0b44f7	1.9791371e-12
120	0xab989bff	-1.0843547e-12
121	0xab704ec6	-8.537445e-13
122	0xaba91f98	-1.2016941e-12
123	0x2b12f3d3	5.2207994e-13
124	0x2b256498	5.875938e-13
125	0x2c1b18e0	2.2040633e-12
126	0xac26bc44	-2.3694527e-12
127	0xad06c0d0	-7.659831e-12
128	0xabf9c97e	-1.7748439e-12
129	0xaa81203b	-2.2937368e-13
130	0xac87174c	-3.8395172e-12
131	0x2b3b737a	6.6596e-13
132	0x2b93d965	1.0505317e-12
133	0x2c00e120	1.8314864e-12
134	0xabb5350e	-1.2875549e-12
135	0xab3a1780	-6.6113087e-13
136	0x2cbdcfe1	5.3947823e-12
137	0x2b4c3a2f	7.2556105e-13
138	0xad120a6e	-8.301455e-12
139	0x2c6780af	3.2898508e-12
140	0x2b88e4de	9.726905e-13
141	0x2b5bd944	7.8105946e-13
142	0xace2ea80	-6.449341e-12
143	0xa95de380	-4.9269182e-14
144	0x2c4e4ba7	2.9316356e-12
145	0x2b74f5aa	8.702714e-13
146	0xac429c4b	-2.7655818e-12
147	0x2c0dc735	2.0147887e-12
148	0x29c7d238	8.8738424e-14
149	0x2c2b7ba5	2.4369198e-12
150	0xaa0ec6d4	-1.2681116e-13
151	0x2c0f891e	2.0397638e-12
152	0xab3672d5	-6.481875e-13
153	0x2d346339	1.0253847e-11
154	0x2ca6692c	4.72968e-12
155	0xabf64a0e	-1.7499906e-12
156	0xacf9e206	-7.1020993e-12
157	0x2b55af5a	7.591615e-13
158	0xacce9ce0	-5.8722888e-12
159	0xabf18348	-1.7160518e-12
160	0xaad6f2c5	-3.8182492e-13
161	0xaadb3dee	-3.8945187e-13
162	0x2c9f22d3	4.522918e-12
163	0x29e314ec	1.00844544e-13
164	0x2bec15f5	1.6774903e-12
165	0x2d4c9cda	1.16308855e-11
166	0x2ca1d43c	4.599458e-12
167	0xaba88cbd	-1.1976181e-12
168	0x2b0d5456	5.02103e-13
169	0xac297c11	-2.4085215e-12
170	0xab9c5dc1	-1.1110489e-12
171	0x29530761	4.6857812e-14
172	0xacbbec3b	-5.3410865e-12
173	0xac0cfc9c	-2.0035423e-12
174	0xad3fc0a6	-1.08998695e-11
175	0x2c47445c	2.8317548e-12
176	0xad0388b6	-7.476844e-12
177	0xaca98cf1	-4.8189165e-12
178	0xacd56648	-6.0651796e-12
179	0x2afdf9b0	4.5115084e-13
180	0xaced0590	-6.7365627e-12
181	0xac82ec9b	-3.7210907e-12
182	0x28441ba0	1.0886176e-14
183	0xab8a61b4	-9.832608e-13
184	0x2c22ee9a	2.3154035e-12
185	0x2c2bfa6a	2.443957e-12
186	0xac2b5e68	-2.4352968e-12
187	0xac5e4bc8	-3.1590165e-12
188	0xac09b555	-1.956953e-12
189	0xac56072c	-3.041521e-12
190	0xabd058f8	-1.4803983e-12
191	0xac26cd1e	-2.3703882e-12
192	0x00006ad4	3.8323e-41
193	0x800037bd	-1.9995e-41
194	0x032fd28f	5.1669587e-37
195	0x80016a8d	-1.30059e-40
196	0x80012609	-1.0548e-40
197	0x00002f6c	1.7012e-41
198	0x022ebf07	1.2838323e-37
199	0x80009c6e	-5.6116e-41
200	0x8000867e	-4.8247e-41
201	0x8000e64f	-8.2619e-41
202	0x00015f4b	1.2602e-40
203	0x80006aca	-3.8309e-41
204	0x0000e43b	8.1874e-41
205	0x00001b93	9.892e-42
206	0x80001d88	-1.0594e-41
207	0x0001781c	1.34923e-40
208	0x80013075	-1.09219e-40
209	0x00017162	1.3251e-40
210	0x80000b67	-4.09e-42
211	0x0000efb6	8.5992e-41
212	0x000079ac	4.3648e-41
213	0x00004e33	2.8053e-41
214	0x80006ec5	-3.9737e-41
215	0x00006bd6	3.8684e-41
216	0x800033cb	-1.858e-41
217	0x80014ee0	-1.2013e-40
218	0x800122c0	-1.04301e-40
219	0x80003b7a	-2.1336e-41
220	0x80003fd5	-2.2899e-41
221	0x000149f2	1.18362e-40
222	0x80001323	-6.865e-42
223	0x00000c5e	4.437e-42
224	0x80006237	-3.5233e-41
225	0x8023b354	-3.278573e-39
226	0x0000800e	4.5937e-41
227	0x800081b5	-4.653e-41
228	0x00001e23	1.0811e-41
229	0x80013eb7	-1.14333e-40
230	0x0000e081	8.0537e-41
231	0x80010e23	-9.6907e-41
232	0x0000171c	8.29e-42
233	0x00010d95	9.6708e-41
234	0x000122ce	1.04321e-40
235	0x00008673	4.8231e-41
236	0x00011391	9.8855e-41
237	0x00007e09	4.5213e-41
238	0x80000d9f	-4.886e-42
239	0x0000e0af	8.0601e-41
240	0x00002b5f	1.5559e-41
241	0x800037b2	-1.998e-41
242	0x80002b83	-1.5609e-41
243	0x8000f7fb	-8.8959e-41
244	0x00003a88	2.0997e-41
245	0x8000c6dc	-7.1337e-41
246	0x80002fc6	-1.7138e-41
247	0x8000a588	-5.9381e-41
248	0x000022dc	1.2505e-41
249	0x0000556f	3.0648e-41
250	0x00012f3c	1.0878e-40
251	0x0d3603fa	5.6087867e-31
252	0x0001002e	9.19e-41
253	0x80003625	-1.9423e-41
254	0x00008dd4	5.0878e-41
255	0x800162ae	-1.27235e-40

ft.bias f4 [128]
0	0xadad1f1f	-1.9681643e-11
1	0xb468276d	-2.1621027e-07
2	0xb86329c4	-5.4159915e-05
3	0xb925249f	-0.00015749269
4	0xb2d3b68b	-2.4646644e-08
5	0xb242842e	-1.132234e-08
6	0xbaab331b	-0.0013061495
7	0x2ca2ce70	4.627236e-12
8	0x3205d61d	7.790303e-09
9	0xb1c2ad08	-5.6658145e-09
10	0xb800af6b	-3.068095e-05
11	0xb5c9ab7e	-1.5025578e-06
12	0xaa5a43e7	-1.9385848e-13
13	0xb6a0a945	-4.788077e-06
14	0xb88f6d89	-6.839174e-05
15	0xab0d292a	-5.015039e-13
16	0xb237510d	-1.0670431e-08
17	0xb0d312e2	-1.5357637e-09
18	0xab3c2cca	-6.6853174e-13
19	0xb2b6f81e	-2.130042e-08
20	0x3adfefc6	0.0017085008
21	0xb4d27592	-3.9201092e-07
22	0x3a4c5d06	0.0007795844
23	0xaf68c376	-2.1169719e-10
24	0xa5eb9915	-4.0869734e-16
25	0xbba0d316	-0.004907976
26	0x9c3238e8	-5.896881e-22
27	0xb73ea150	-1.1362441e-05
28	0xbbe7870c	-0.0070656594
29	0xb519c88a	-5.7288764e-07
30	0xb0ed96de	-1.7286899e-09
31	0x80005e12	-3.3746e-41
32	0xb889f79b	-6.578789e-05
33	0xad939a98	-1.6780619e-11
34	0xb6ef8514	-7.1382474e-06
35	0xaa9905eb	-2.7182366e-13
36	0xb17483ed	-3.5581664e-09
37	0x3bb14f5f	0.005411073
38	0xb97dff63	-0.00024223099
39	0x80013eb7	-1.14333e-40
40	0xaddae698	-2.4886135e-11
41	0xb5e77e7f	-1.7247656e-06
42	0x311e040a	2.2994322e-09
43	0x35a21432	1.2075818e-06
44	0xadc08eeb	-2.1891341e-11
45	0x3b2c9e12	0.0026339334
46	0xb16a43d6	-3.4090042e-09
47	0x347d6600	2.3599569e-07
48	0x395865c0	0.0002063727
49	0xbc22f181	-0.009945274
50	0xb926aa06	-0.00015894332
51	0x9388aed8	-3.4503636e-27
52	0x31e74a30	6.731419e-09
53	0xbacd86c7	-0.0015680426
54	0xb65d5fad	-3.2987257e-06
55	0x995401d5	-1.0960513e-23
56	0xb0505402	-7.578934e-10
57	0x3cab8fb4	0.020942546
58	0x37cbc640	2.4291803e-05
59	0xbc13c792	-0.009019749
60	0xb37fbb7a	-5.9542323e-08
61	0xb4288c12	-1.5697177e-07
62	0xaf814cb9	-2.3519478e-10
63	0x3c9356e2	0.017985765
64	0xab83de1b	-9.369756e-13
65	0xa3eea685	-2.5874535e-17
66	0xb4904c60	-2.687766e-07
67	0xae71c7e4	-5.4974594e-11
68	0xb28b97d6	-1.6250777e-08
69	0xb496c5f1	-2.8083699e-07
70	0xbc21de38	-0.009879641
71	0xaf17d098	-1.3807477e-10
72	0xac89fff1	-3.9221894e-12
73	0x3c92cfe5	0.017921397
74	0xba0ae2b2	-0.00052980625
75	0x398741a9	0.00025798127
76	0x9a68b3fa	-4.812186e-23
77	0xaac33483	-3.4675396e-13
78	0xbb87c93f	-0.0041438635
79	0xba9a6a08	-0.0011780867
80	0xb98ef4af	-0.00027266654
81	0xb88c608a	-6.693702e-05
82	0xb6d7844c	-6.4229007e-06
83	0xb48b0121	-2.589159e-07
84	0xad7a9883	-1.4244719e-11
85	0xb0c4dfac	-1.4324448e-09
86	0xb9e3b67a	-0.0004343277
87	0xbc11e592	-0.0089048315
88	0xb69955b2	-4.5697316e-06
89	0x3ca87e34	0.02056799
90	0xb4205b63	-1.4934407e-07
91	0x9fc3bdae	-8.289951e-20
92	0xbc1390ba	-0.0090066735
93	0xb90c7bcf	-0.00013397563
94	0xae0c5a2a	-3.1912396e-11
95	0xba4548c8	-0.0007525799
96	0xb7572c4c	-1.2825312e-05
97	0xbad95157	-0.0016580027
98	0x9a8e1ef2	-5.877982e-23
99	0xb169fddb	-3.4050263e-09
100	0xb4747c92	-2.2769589e-07
101	0xb322e9f6	-3.793135e-08
102	0xb724a6ed	-9.814027e-06
103	0xbb119427	-0.002221355
104	0xbb44b371	-0.0030014182
105	0xb6b41dd2	-5.3678896e-06
106	0xb2fc6d7b	-2.9386447e-08
107	0xba9ba69e	-0.0011875217
108	0xb9b4163d	-0.00034348844
109	0xaf19f1df	-1.4001199e-10
110	0xbb1fa564	-0.0024360055
111	0xb59b80d4	-1.1585894e-06
112	0xaeeee893	-1.08643004e-10
113	0xb5579dc2	-8.032331e-07
114	0xa084d9a0	-2.2505682e-19
115	0xb6bbf6db	-5.601772e-06
116	0xad19109d	-8.700732e-12
117	0xb616eb79	-2.2488805e-06
118	0xb5a377ce	-1.2179314e-06
119	0xbc52e9f9	-0.012873166
120	0xba7ccf9a	-0.0009643972
121	0xb4ce14d2	-3.838564e-07
122	0x3cc932b2	0.024560306
123	0xbc6f9699	-0.014623308
124	0xaa8708e5	-2.398699e-13
125	0xb9912155	-0.0002768139
126	0xb60c7702	-2.0930897e-06
127	0x3c3a2a09	0.011362561

l1.weight f4 [32, 128]
0	0xa9f350a0	-1.0805354e-13
1	0x0642322b	3.6524202e-35
2	0x25a5d101	2.8764564e-16
3	0xb486b780	-2.509296e-07
4	0x228a16e1	3.74292e-18
5	0x3245305c	1.1477905e-08
6	0x33f39657	1.1342916e-07
7	0xafdaaa9a	-3.977519e-10
8	0xb0328c68	-6.495555e-10
9	0x31b52d52	5.2729456e-09
10	0x36d2439d	6.266359e-06
11	0x1be7c0c4	3.8340316e-22
12	0x8000e10d	-8.0733e-41
13	0xb6a4592c	-4.897962e-06
14	0xb81d7046	-3.753628e-05
15	0x00017edd	1.37345e-40
16	0x80005a78	-3.2454e-41
17	0x2e8995a4	6.25662e-11
18	0xaaa7d436	-2.981241e-13
19	0x1aa7f9e3	6.9473295e-23
20	0xba9603a1	-0.0011445173
21	0x9181a234	-2.0452577e-28
22	0xbbe38bda	-0.006944162
23	0x2ce0b355	6.3863728e-12
24	0x00033bd5	2.9697e-40
25	0xb827f2ee	-4.004215e-05
26	0x8000b263	-6.3993e-41
27	0x3692eb30	4.3785185e-06
28	0x3e2e8213	0.17041807
29	0x221ff3ac	2.1677517e-18
30	0x3001002d	4.6930176e-10
31	0x0000010d	3.77e-43
32	0x1909de51	7.1276304e-24
33	0x80004709	-2.5483e-41
34	0xb782cab8	-1.5591606e-05
35	0x800110b3	-9.7826e-41
36	0x078f6086	2.157298e-34
37	0xbdf5bb12	-0.119985715
38	0x207852a0	2.1033755e-19
39	0x8000917e	-5.2193e-41
40	0x0000c535	7.0745e-41
41	0x1ef159ac	2.5553955e-20
42	0xb1c56be4	-5.7457203e-09
43	0xb5ba12eb	-1.3863586e-06
44	0x2d181e47	8.646923e-12
45	0xbb816352	-0.0039486075
46	0xaf13f692	-1.3457171e-10
47	0xb42a8590	-1.5881074e-07
48	0xb6b31940	-5.337555e-06
49	0xb8901887	-6.871024e-05
50	0x38973e98	7.2119e-05
51	0x00002fa7	1.7094e-41
52	0xb1e6a296	-6.712365e-09
53	0x3e3a02eb	0.18165176
54	0x9397a14e	-3.8276818e-27
55	0x000076fd	4.2685e-41
56	0x22a5abdf	4.4905315e-18
57	0x3e08cf37	0.13360296
58	0xbc437d93	-0.011931795
59	0x3ab2026a	0.0013581042
60	0xb341aa56	-4.5091234e-08
61	0x30bb74a8	1.3639196e-09
62	0x2e801b0e	5.825572e-11
63	0x3e0e2283	0.13880353
64	0x0dbdc8b4	1.1696342e-30
65	0x977452c2	-7.8945107e-25
66	0x843f029f	-2.2453146e-36
67	0x8b527edf	-4.0539976e-32
68	0x31241f5d	2.388297e-09
69	0xb412536a	-1.3627655e-07
70	0x3a83d933	0.0010059237
71	0xaebab56b	-8.490527e-11
72	0x1567b32d	4.6791423e-26
73	0xbe030a45	-0.12796886
74	0xb74a80ff	-1.20701725e-05
75	0xba99cfa0	-0.0011734851
76	0x80002a8d	-1.5264e-41
77	0xa3cf0008	-2.2442998e-17
78	0x3e26cf97	0.16290127
79	0x377c9c44	1.5056754e-05
80	0xa45be502	-4.7682032e-17
81	0x37d3b3da	2.523691e-05
82	0xb6799413	-3.7190082e-06
83	0x1e55dc16	1.1321639e-20
84	0x0f5ef597	1.0992744e-29
85	0xafcf1532	-3.766814e-10
86	0xb9c5e472	-0.00037744973
87	0x3dad0dd6	0.084499046
88	0xb65f0e40	-3.3237884e-06
89	0xbe17c223	-0.14820151
90	0x0d16092a	4.623335e-31
91	0x00004fbe	2.8606e-41
92	0x3a526fa4	0.00080275
93	0xb823624b	-3.895377e-05
94	0x879d3b5b	-2.365762e-34
95	0x3169dec9	3.4032601e-09
96	0x135df8b5	2.8016744e-27
97	0xb54d2ad4	-7.6430774e-07
98	0x800089ae	-4.939e-41
99	0xafcc881c	-3.7204095e-10
100	0x88131953	-4.426597e-34
101	0xb50f665e	-5.3420615e-07
102	0xa6035dd7	-4.557693e-16
103	0x379d50eb	1.8753539e-05
104	0xb5ce38ab	-1.5364689e-06
105	0x1d1a25ba	2.0401234e-21
106	0x80285cfb	-3.706775e-39
107	0x3a7bf2ef	0.000961109
108	0xafa13191	-2.9320948e-10
109	0x84e9880e	-5.4902983e-36
110	0x3e3d9069	0.1851212
111	0x8d14fd44	-4.591088e-31
112	0x000041c2	2.359e-41
113	0xb3cd0751	-9.547387e-08
114	0x80002e4b	-1.6607e-41
115	0xb53a754c	-6.946109e-07
116	0x8498d5ac	-3.5931255e-36
117	0x86a546e0	-6.2170243e-35
118	0xb3588f56	-5.0421782e-08
119	0x3e1b2487	0.15150653
120	0xb0450b46	-7.1684203e-10
121	0x88509902	-6.2772583e-34
122	0xbe19ce9b	-0.1502022
123	0xbc4248d2	-0.011858182
124	0x85046aef	-6.226251e-36
125	0x3102477f	1.895813e-09
126	0x3518ef6a	5.6972806e-07
127	0x3daccaf7	0.0843715
128	0xad951404	-1.6948228e-11
129	0xb494e36a	-2.7732614e-07
130	0xb23afe1f	-1.0884405e-08
131	0xb5c2c212	-1.4510608e-06
132	0x305c658e	8.017985e-10
133	0x345b4c00	2.0423613e-07
134	0xa35a8e82	-1.1847981e-17
135	0xadd45a52	-2.414172e-11
136	0x3684384c	3.9404604e-06
137	0x34945810	2.7631222e-07
138	0xb7c973d8	-2.4015011e-05
139	0xb10d41fc	-2.0555708e-09
140	0xb8909cb6	-6.895645e-05
141	0x2e636bc4	5.170954e-11
142	0x2fab3367	3.1141242e-10
143	0x360c24c9	2.0883037e-06
144	0x31a6e51a	4.8572817e-09
145	0x3311606c	3.384814e-08
146	0x2f90eaee	2.6360375e-10
147	0x385d14dc	5.2709933e-05
148	0x36110b5f	2.1613303e-06
149	0xaedd6e5e	-1.00695216e-10
150	0x3781e1a1	1.5483065e-05
151	0x36bc0fa7	5.604659e-06
152	0xb268d272	-1.3552027e-08
153	0x36dfb253	6.6666776e-06
154	0x3013e3b6	5.3801885e-10
155	0x33a5c27a	7.718786e-08
156	0xb29772fd	-1.7631004e-08
157	0x20850ed8	2.25409e-19
158	0x2bc3512c	1.3878113e-12
159	0x000002bf	9.85e-43
160	0x311981ca	2.2338207e-09
161	0x31117b1b	2.1170254e-09
162	0xafd76687	-3.9181122e-10
163	0x3742a6e8	1.1602162e-05
164	0x2ef443d0	1.1107881e-10
165	0xb24f3ba5	-1.2062547e-08
166	0xa99c40b4	-6.939016e-14
167	0x8000bb90	-6.7285e-41
168	0xac1acc12	-2.1997998e-12
169	0x34ae4154	3.2457558e-07
170	0xb54f0eb8	-7.713493e-07
171	0xb58ddf21	-1.0570258e-06
172	0x326b5cb0	1.3699875e-08
173	0xb18f59b0	-4.172044e-09
174	0x32c6d75b	2.3148166e-08
175	0x2d2206ca	9.210141e-12
176	0x3398cc91	7.115262e-08
177	0xb7977062	-1.8052935e-05
178	0x378d94fc	1.6877886e-05
179	0xaad12b0c	-3.7155728e-13
180	0xaa002211	-1.1380503e-13
181	0xb2c2de49	-2.2685656e-08
182	0xb51650ab	-5.599674e-07
183	0xb41b30f8	-1.4453315e-07
184	0x20713a70	2.043283e-19
185	0xb2dbf3c6	-2.560581e-08
186	0xb3a9d770	-7.9088636e-08
187	0xb25b3998	-1.2760573e-08
188	0xb21e698c	-9.220809e-09
189	0xaf257286	-1.504735e-10
190	0x38527c7a	5.018383e-05
191	0xb2967b44	-1.7518353e-08
192	0xaf990c26	-2.783917e-10
193	0x2f176b00	1.3771384e-10
194	0x30407e97	7.002909e-10
195	0xad119f2a	-8.277637e-12
196	0x3329f488	3.957078e-08
197	0xb15f7e20	-3.2522465e-09
198	0xb10e54d0	-2.071193e-09
199	0xb1eea3f7	-6.9453523e-09
200	0x351b05b8	5.775032e-07
201	0xb12e951b	-2.540509e-09
202	0xb09bc0c3	-1.133252e-09
203	0x351b4c34	5.785289e-07
204	0xafac6d2c	-3.136419e-10
205	0xa0a207dc	-2.7449068e-19
206	0xb20446ce	-7.69951e-09
207	0xaa4128e2	-1.7156028e-13
208	0x9a4f98e6	-4.2930107e-23
209	0xace5ab88	-6.5276153e-12
210	0xb73bf82d	-1.12038515e-05
211	0x1a887b3f	5.6447396e-23
212	0x31b2cf4d	5.204049e-09
213	0x2ea53606	7.512928e-11
214	0x37eb1102	2.8022103e-05
215	0xb1ee7140	-6.9395867e-09
216	0xaf0a66ce	-1.258755e-10
217	0xb29a4622	-1.7959852e-08
218	0xafc2e180	-3.5448622e-10
219	0x3130b63e	2.5714963e-09
220	0xb6eff678	-7.151448e-06
221	0x358ddcec	1.0569615e-06
222	0xb42ef025	-1.6292377e-07
223	0xa27bd7a0	-3.4130994e-18
224	0x34389455	1.7190298e-07
225	0xb1963963	-4.3720987e-09
226	0x2bc81ab4	1.4218266e-12
227	0x38afd1bd	8.383717e-05
228	0xb1847cd6	-3.855898e-09
229	0xb20e29b2	-8.274968e-09
230	0xac50df6d	-2.9682604e-12
231	0x218b7e2c	9.452404e-19
232	0x2465c83a	4.9826058e-17
233	0xb105e45e	-1.948386e-09
234	0xb089f9d2	-1.0039065e-09
235	0xb285e074	-1.5585307e-08
236	0x341ae8a0	1.4426996e-07
237	0x33a06396	7.468695e-08
238	0xb2708355	-1.39997e-08
239	0xae956ed0	-6.79542e-11
240	0x804da195	-7.129298e-39
241	0xb7c21a7e	-2.3138939e-05
242	0xb7322dfe	-1.0620335e-05
243	0xaee149c5	-1.02449195e-10
244	0xb3fe0730	-1.1829104e-07
245	0x35dd3008	1.6479762e-06
246	0xb622da28	-2.4266865e-06
247	0xb202cfe7	-7.614267e-09
248	0x28480eb7	1.1105421e-14
249	0xb2d5250a	-2.4813307e-08
250	0xb20f32e6	-8.3352685e-09
251	0xb474cb46	-2.2798221e-07
252	0xad0fe83c	-8.180175e-12
253	0xa5d6db24	-3.7271578e-16
254	0xb29f5e3a	-1.8552885e-08
255	0xb262dcc8	-1.3205131e-08

l1.bias f4 [32]
0	0x3d31fdfa	0.0434551
1	0xb33d3ee8	-4.4062205e-08
2	0x3510b66d	5.3909645e-07
3	0x3cb7e299	0.022446917
4	0x3d0a2025	0.03372206
5	0x3c932910	0.017963916
6	0x3d0f5cb3	0.035000514
7	0xb872e45c	-5.7909972e-05
8	0x35964474	1.1195793e-06
9	0xb52ea474	-6.505936e-07
10	0x3c2c64ee	0.01052211
11	0xb835db61	-4.3358075e-05
12	0x3d44d80b	0.048057597
13	0x3cc568bf	0.024097798
14	0x3cd49275	0.025948742
15	0xb4f16096	-4.4960024e-07
16	0x354866b1	7.465524e-07
17	0x3d2838f8	0.041069955
18	0xbb3d87f2	-0.002892014
19	0xb457f189	-2.0111305e-07
20	0x391b9a76	0.00014839493
21	0xb16cc7d8	-3.4456118e-09
22	0x3d204cef	0.03913587
23	0xb44f64ed	-1.9315094e-07
24	0xb70f4b40	-8.540985e-06
25	0x34c81441	3.726764e-07
26	0xb7258f08	-9.868068e-06
27	0xb349af6a	-4.6958498e-08
28	0xb6771cb4	-3.6822576e-06
29	0x3d1579c4	0.036493078
30	0x3d125a17	0.035730448
31	0x35682bae	8.64903e-07

l2.weight f4 [8, 32]
0	0xbd0070be	-0.03135752
1	0xb32537ad	-3.8467693e-08
2	0x31c4dec0	5.7296745e-09
3	0x3bfc8c13	0.007707128
4	0xbcc6e774	-0.024280287
5	0x3bc8c019	0.0061264155
6	0xbcccb2f7	-0.02498768
7	0xb733d42d	-1.0718632e-05
8	0xb402f68a	-1.2196884e-07
9	0x3367cb62	5.3968854e-08
10	0x3b64ca32	0.0034910557
11	0xb76038f4	-1.3364701e-05
12	0xbd0da8f0	-0.03458494
13	0x3c07f265	0.008297537
14	0xbc9839c6	-0.018582236
15	0x320ff716	8.379876e-09
16	0xb538359d	-6.862336e-07
17	0x3c682bd6	0.014170608
18	0xb9b05e68	-0.00033639674
19	0xb3133e69	-3.4282866e-08
20	0xb76d26d4	-1.4135341e-05
21	0x32506b3d	1.2131577e-08
22	0xbce5c1e0	-0.028046548
23	0x311a17ec	2.2423547e-09
24	0xb39f21d4	-7.410168e-08
25	0x34cb2b62	3.7843262e-07
26	0xb706dca6	-8.038396e-06
27	0xb4419ee6	-1.8032333e-07
28	0xb4f2b85b	-4.521015e-07
29	0xbcd78c1e	-0.02631193
30	0xbcd11f58	-0.025527641
31	0xb42fa3fa	-1.63578e-07
32	0x3019c8fa	5.594668e-10
33	0x37407ab8	1.14726645e-05
34	0xb177ed82	-3.6078238e-09
35	0x2b36a940	6.489427e-13
36	0x2ffb2587	4.56833e-10
37	0x2e01547d	2.9406245e-11
38	0x30042862	4.807871e-10
39	0x3339e908	4.328561e-08
40	0x36a4e9bf	4.9147925e-06
41	0x307ba5e4	9.1549013e-10
42	0xae4c9901	-4.6520125e-11
43	0xaec41f6c	-8.91863e-11
44	0x3015f632	5.455575e-10
45	0xacab3b38	-4.866687e-12
46	0x2f4d098f	1.8648037e-10
47	0x3306f2f4	3.142027e-08
48	0xa6815b40	-8.975906e-16
49	0x2f727c4a	2.2053928e-10
50	0x356275c4	8.436293e-07
51	0x30840bc4	9.607608e-10
52	0xaeb7a870	-8.351797e-11
53	0xb0f03740	-1.7478001e-09
54	0x30151157	5.4230526e-10
55	0xb44cc466	-1.907043e-07
56	0x2cac4154	4.895787e-12
57	0xb36e09be	-5.5422554e-08
58	0xb21fdd82	-9.305383e-09
59	0x321c96d8	9.114693e-09
60	0x35660c66	8.569972e-07
61	0x300c2e37	5.099738e-10
62	0x30080836	4.948818e-10
63	0xaf191d7e	-1.3925747e-10
64	0xbd3d8e88	-0.046278507
65	0xb33f7b53	-4.4582816e-08
66	0xb58f714d	-1.0687305e-06
67	0x3c39b8dd	0.011335579
68	0xbd13347e	-0.035938732
69	0x3c13aebe	0.00901383
70	0xbd177792	-0.036979266
71	0xb56b4ea0	-8.7658736e-07
72	0xb4e1ffe6	-4.2095706e-07
73	0x3443a446	1.8220553e-07
74	0x3ba77511	0.005110391
75	0xb82e415a	-4.1545696e-05
76	0xbd50de61	-0.050993327
77	0x3c47e40f	0.0122003695
78	0xbce229df	-0.027607856
79	0x33b643b9	8.487354e-08
80	0xb5327b36	-6.648946e-07
81	0x3caa6e5c	0.020804577
82	0xba1f9f4d	-0.00060891063
83	0x32bcb874	2.196996e-08
84	0x384a5c08	4.8246264e-05
85	0x326ee239	1.390486e-08
86	0xbd29c4e8	-0.04144755
87	0x32b55e25	2.1113985e-08
88	0x35301baa	6.5605366e-07
89	0x34c77970	3.7154996e-07
90	0xb73706b9	-1.0909215e-05
91	0xb4580b2a	-2.0120629e-07
92	0xb57f451c	-9.509547e-07
93	0xbd1f5d6b	-0.03890745
94	0xbd1ab32c	-0.037768528
95	0x348384d4	2.4497297e-07
96	0x3535c779	6.7718025e-07
97	0x2f97a645	2.7584882e-10
98	0x3700c67d	7.675609e-06
99	0xb39709c8	-7.0332646e-08
100	0x339197ac	6.7796776e-08
101	0x349d15f0	2.925949e-07
102	0x343d0030	1.7602065e-07
103	0x30a39150	1.1901111e-09
104	0xb6e430c8	-6.8006084e-06
105	0x2df1ad54	2.7475501e-11
106	0x349b5799	2.8934735e-07
107	0x30919f14	1.0595351e-09
108	0x3549ba99	7.514987e-07
109	0xb4c0f4fc	-3.5941036e-07
110	0xb4da2edc	-4.063976e-07
111	0x2c8dec85	4.03372e-12
112	0x2ff04dfe	4.3711162e-10
113	0xb54be718	-7.595968e-07
114	0xb2ed5a54	-2.7631508e-08
115	0xb2e7fc9c	-2.7006813e-08
116	0xb24bc428	-1.1860756e-08
117	0xaced411a	-6.743173e-12
118	0x350ae14e	5.173687e-07
119	0x3297be53	1.7665263e-08
120	0x2e2525b1	3.7550133e-11
121	0x3154c254	3.0960523e-09
122	0x34c953c7	3.7500124e-07
123	0xaffddf68	-4.6179172e-10
124	0xb1a2e414	-4.74075e-09
125	0x34c06bc2	3.584119e-07
126	0x3484a02d	2.470346e-07
127	0xb578b195	-9.2645615e-07
128	0xaab986ce	-3.295614e-13
129	0xaa5c1824	-1.9548301e-13
130	0x390006e2	0.00012209595
131	0x29e54493	1.01815386e-13
132	0xaabbec67	-3.338191e-13
133	0x29c5e7ea	8.788788e-14
134	0xaabba3b1	-3.3331457e-13
135	0x2459ebdd	4.7254158e-17
136	0x220a7c9c	1.8768455e-18
137	0xb41dd6d6	-1.4699921e-07
138	0x298efe64	6.3501965e-14
139	0xa8aa073c	-1.8876929e-14
140	0xaaba0ff6	-3.3051312e-13
141	0x29f16d73	1.07215364e-13
142	0xaab2cc89	-3.1761077e-13
143	0x2740fa50	2.6781047e-15
144	0xa4d97431	-9.4305584e-17
145	0x2a19d862	1.3664203e-13
146	0xa3d50966	-2.3097487e-17
147	0x9fd61dc6	-9.068178e-20
148	0x27934670	4.0877065e-15
149	0x9d91031c	-3.8384395e-21
150	0xaaba9d40	-3.314935e-13
151	0x21b54618	1.2283591e-18
152	0xa1627f00	-7.673986e-19
153	0xa455b764	-4.634235e-17
154	0xa37c2d80	-1.3670582e-17
155	0x28126ac8	8.1277826e-15
156	0xa0135820	-1.2480542e-19
157	0xaabb9b41	-3.3325602e-13
158	0xaabb88f2	-3.3312898e-13
159	0xa51a03c4	-1.3358647e-16
160	0xb49e04e0	-2.943334e-07
161	0xac39ebc8	-2.6420966e-12
162	0x2e610b33	5.1169024e-11
163	0x33f4d9af	1.1401732e-07
164	0xb456a42c	-1.9990028e-07
165	0x33bc23ff	8.76098e-08
166	0xb461da39	-2.1034147e-07
167	0xaf15b5dc	-1.361608e-10
168	0x2dc1d28d	2.2035063e-11
169	0x2bc48906	1.3964669e-12
170	0x33422134	4.5199343e-08
171	0xb07363f4	-8.8544927e-10
172	0xb4b23012	-3.319006e-07
173	0x34045cd3	1.2327227e-07
174	0xb3e1bf3c	-1.0512164e-07
175	0x2ca6914f	4.7341363e-12
176	0x2ce3179a	6.4543483e-12
177	0x344a6f43	1.8853193e-07
178	0x31e70393	6.723391e-09
179	0xaae0ff68	-3.9967617e-13
180	0x31814da8	3.7632226e-09
181	0x2bd80334	1.5348612e-12
182	0xb487ad1b	-2.527166e-07
183	0xab266bc3	-5.9124596e-13
184	0xacc6b1f2	-5.6472544e-12
185	0xacc2ae1f	-5.533143e-12
186	0xaee4c2fc	-1.0402876e-10
187	0xac6e4636	-3.386081e-12
188	0xad890ead	-1.5581614e-11
189	0xb47659fe	-2.2943274e-07
190	0xb46a457e	-2.181823e-07
191	0x2d9d4774	1.7880565e-11
192	0x3eb812fe	0.3595199
193	0x338f6f2b	6.679178e-08
194	0x33de6ef6	1.0357864e-07
195	0xbda9b322	-0.0828612
196	0x3e8f9e37	0.28050396
197	0xbd87adb4	-0.06624928
198	0x3e93cc56	0.28866833
199	0x38102309	3.4364904e-05
200	0x35bc925c	1.4049688e-06
201	0x344d0610	1.9094318e-07
202	0xbd1d78a0	-0.038445115
203	0x3881ad48	6.1834755e-05
204	0x3eca7af9	0.39546946
205	0xbdb65eac	-0.08904776
206	0x3e5df0de	0.21673915
207	0x33424c34	4.523845e-08
208	0xb5d015bb	-1.5503532e-06
209	0xbe1ac7a2	-0.15115216
210	0xbab106fd	-0.0013506111
211	0x344193d2	1.8028302e-07
212	0x3675d320	3.6630736e-06
213	0xb2994f72	-1.7847672e-08
214	0x3ea54375	0.32278028
215	0x336264ae	5.2711293e-08
216	0xb5d7c41e	-1.6075826e-06
217	0xb4bc4abc	-3.5072105e-07
218	0x367032b2	3.5792295e-06
219	0x348dc7d8	2.6408702e-07
220	0x35e5e030	1.7127077e-06
221	0x3e9b401f	0.30322358
222	0x3e96e448	0.2947104
223	0x32ae2440	2.027275e-08
224	0x3ebdb4f8	0.3705213
225	0x33913a3c	6.7626814e-08
226	0x3489acaf	2.5643882e-07
227	0xbdaf250b	-0.08551987
228	0x3e9405cd	0.28910676
229	0xbd8c070a	-0.0683728
230	0x3e985492	0.29752022
231	0x38102945	3.437071e-05
232	0x35bc3c8a	1.4024711e-06
233	0x3434786d	1.6807617e-07
234	0xbd228c00	-0.039684296
235	0x3882b837	6.233196e-05
236	0x3ed0aba2	0.40755945
237	0xbdbc3a0c	-0.09190759
238	0x3e64c38b	0.22340219
239	0x32fe32c2	2.9592574e-08
240	0xb5d327ee	-1.5732346e-06
241	0xbe1fd5d8	-0.15608919
242	0xbab403ed	-0.001373408
243	0x3436dd42	1.7030564e-07
244	0xb5ca6e60	-1.5082296e-06
245	0xb2995c86	-1.7853619e-08
246	0x3eaa5360	0.33266735
247	0x3365dfdd	5.352182e-08
248	0xb5df9e15	-1.6660803e-06
249	0xb4c39879	-3.643252e-07
250	0x3657adca	3.2138655e-06
251	0x348d8f66	2.6367633e-07
252	0x35dbad94	1.6367289e-06
253	0x3ea0023d	0.31251708
254	0x3e9b8498	0.30374599
255	0xb28df2d0	-1.6524979e-08

l2.bias f4 [8]
0	0x3cd97c81	0.026548626
1	0xb10f6a64	-2.0869715e-09
2	0x3d1f8954	0.038949326
3	0xb6859b0c	-3.9817587e-06
4	0xa98b92b3	-6.198288e-14
5	0x34d0609f	3.881332e-07
6	0x3d02cbfa	0.03193281
7	0x3ca733b6	0.0204104

l3.weight f4 [1, 8]
0	0x3dab1e12	0.08355345
1	0xb13a82bf	-2.7140883e-09
2	0x3dfb9cff	0.12285804
3	0x356a52cb	8.729227e-07
4	0xada81b80	-1.9111601e-11
5	0x35581d11	8.050857e-07
6	0xbf6650cd	-0.8996704
7	0xbf6d7d74	-0.9276955
